models/pendulum/adjoint.pth (torch, 5455 bytes, 8 tensors)

net.0.weight f4 [8, 2]
00000000: 677a 23bf 6e04 953e c283 1fbf 885f 033f
00000010: e0b6 bdbe d87a 16bf 9088 f83d 8522 613e
00000020: e33f e13e 8e1b b3be 19ca b13e 6d34 95be
00000030: 6d98 e43e 17b9 063f 2450 04bd 5415 5f3e
-0.63858646 0.29104942 -0.6231042 0.51317644 -0.37053585 -0.58781195 0.12135422 0.21985824
0.43994054 -0.3498196 0.347245 -0.2914156 0.44647542 0.52626175 -0.03230299 0.2178548

net.0.bias f4 [8]
00000000: 8688 373e 56e3 14be a807 fcbd ecf4 20bf
00000010: b0d2 4e3e 5420 b43e 99d7 233f efa6 ffbe
0.17923173 -0.14539847 -0.12306148 -0.6287372 0.20197558 0.35180914 0.6400085 -0.49932048

net.2.weight f4 [16, 8]
00000000: bfb7 e0be cd04 763e 2e0a 34bc 5660 ea3b
00000010: 78e4 a73d fd49 9bbe cd32 83be b543 11be
00000020: d765 613e 8d7c 4e3e 41f9 5b3e e421 cf3e
00000030: babc 7e3e 8f8a f73d a277 98bd 4fd4 953e
00000040: 83b3 94be 47dc d2be c7c6 73be fad1 8f3e
00000050: 903e 823e b9f8 3c3e c2aa 41be 6b2e 80bc
00000060: d429 0d3e acfa 20be fd08 41bd 8c75 323e
00000070: c42a 8fbe 4573 543e cf49 bdbe ca4a c43d
00000080: 8dd7 a03d 806c 713d b8ac 16be d5e8 c13d
00000090: b962 b93e a145 aebe 9d5a a13d dc29 563e
000000a0: d1b1 17bd d2c3 a5be 8494 b33e 3afe 03be
000000b0: 2230 94be a7d4 31be 1af9 99be fa0f 19be
000000c0: b86f 24be 7846 e73d 3522 ba3e 32d6 cd3e
000000d0: 11c3 4e3e be27 d73d cbb4 84be a489 ffbd
000000e0: 6a75 d73e 55e6 7fbd 92c3 63be 6e5b 7bbc
000000f0: 2aa4 c9be 2b1a 02be bbdc fb3d aad6 aa3e
00000100: 5179 7c3e 5cb6 7cbe 8374 e2bd 05b1 f4bd
00000110: fed4 babe 2fbf a33e 8260 7cbd 015d bdbd
00000120: bc9a 7bbe 96e9 453e 2242 023d a1f9 623e
00000130: 8c04 68be 89b7 84bd 1aec b63c da40 e03c
00000140: 9408 5abc ce18 d0be 4766 10bd d499 b3be
00000150: 4c95 8a3d f6bf a23d e0de 84be f7bd b8be
00000160: 2235 b93e 7670 773e f3eb 703e bbdd 863d
00000170: ccd8 40be 52e1 ebbd 1934 b9bc 2018 453d
00000180: 6551 e5bd 13c4 d03e 0299 a23d 5fc4 703d
00000190: 4103 5d3e d539 79be 6c3f dc3c 5613 c3bd
000001a0: 1e47 05be e4ca ef3d 5495 263d b040 253d
000001b0: e3c0 5fbe 79dc 8dbe 0a96 523e 33a6 c4be
000001c0: 183f 9ebe 9cc7 4a3e d2ca a6be e55d 20be
000001d0: f1d2 993d 277f 653e e5d9 173e 929d 6fbe
000001e0: 768b af3e f1d3 063e de72 2bbe 8a28 1cbe
000001f0: ae70 babe 1b59 28bd 0069 623d fe3e aabe
-0.43890187 0.24025269 -0.010988755 0.0071525974 0.08197874 -0.30329886 -0.25624695 -0.14185984
0.22011505 0.201647 0.21481802 0.40455544 0.24876681 0.12086975 -0.07444693 0.2926354
-0.29043207 -0.41183683 -0.23806296 0.28089887 0.25438356 0.18454255 -0.18912795 -0.015647134
0.13785487 -0.15720624 -0.047127713 0.17427653 -0.27962315 0.20747097 -0.36970374 0.095845774
0.07853613 0.058941364 -0.14714324 0.09468237 0.36208132 -0.34037498 0.07878611 0.20914406
-0.037034813 -0.32375962 0.35074246 -0.12889948 -0.28942972 -0.17366277 -0.30072862 -0.14947501
-0.16058242 0.11292738 0.36354223 0.4020248 0.201916 0.10505627 -0.25919184 -0.12477425
0.42081767 -0.06247552 -0.22242573 -0.015341623 -0.3938306 -0.12705295 0.1229796 0.333669
0.24655654 -0.2467894 -0.11057379 -0.11947826 -0.36490625 0.319818 -0.061615475 -0.09246255
-0.24570745 0.19327387 0.03180135 0.22165538 -0.22657984 -0.06480319 0.022329379 0.027374674
-0.013307709 -0.40643924 -0.03525379 -0.350783 0.06766757 0.0794677 -0.2595129 -0.36082432
0.3617335 0.24163994 0.23527507 0.065852605 -0.18832701 -0.11517586 -0.02260785 0.04811871
-0.111971654 0.40774593 0.0793934 0.058781024 0.21583273 -0.24338467 0.02688571 -0.095251724
-0.1301541 0.1170862 0.040669754 0.040344894 -0.21850924 -0.2770727 0.20565048 -0.3840805
-0.30907512 0.19802707 -0.32576615 -0.15660818 0.07510937 0.22411786 0.14829214 -0.23399952
0.34286088 0.13166787 -0.16743037 -0.1524984 -0.36414093 -0.041100603 0.055275917 -0.33251184

net.2.bias f4 [16]
00000000: 8d68 063d 78cc 96bd 3bf6 cb3e 42a0 50bd
00000010: a59b 6bbe 956d 26bd 31c6 58be 7287 723e
00000020: bb9c 69bd f649 30be 8bf5 3ebe ac80 d73d
00000030: ee15 213e ee82 b13e 650c c2bd bb7f 91be
0.03281455 -0.07363218 0.39836296 -0.050934084 -0.23008592 -0.04063185 -0.21169354 0.23684481
-0.057034235 -0.17215714 -0.18648355 0.10522589 0.15731022 0.34670204 -0.0947502 -0.28417763

net.4.weight f4 [32, 16]
00000000: 2b6c 513e f0f6 b53d f67b 963c ab47 e2bd
00000010: 5c55 4b3d 2edb 473e 88cc 7a3e ae87 3a3e
00000020: 3db5 e43d 3cdc e23d 131c 3e3d e30a ee3d
00000030: 6631 1d3e 1c0b 81be 8251 a73d a5fc 90be
00000040: 6b17 85bd fbd1 053e e12a a93e 886e e93c
00000050: 5ed0 7c3e 84f9 fdbd b996 a7bd 2b74 ce3d
00000060: 94fc 45be 8708 83bc 53d1 5b3e f499 073d
00000070: 068b bdbd 0658 97bd 18b9 013e 9880 4ebe
00000080: dec2 35bd 7017 8fbe 505e 3d3e d9e7 80bd
00000090: 7e28 2ebe c490 2ebe bba0 72be eaec ec3d
000000a0: a73e bcbd 70df 69be 4f31 51bc 6d3b 04be
000000b0: 34a0 4a3c 4fe9 debd 53f7 113e f7b4 823d
000000c0: 7755 90bd c2b2 d63d eba2 92be b73d 343e
000000d0: 8a2f d4bc 3b8a 8d3e 701a c4bc a09e 0d3e
000000e0: 7fdd 00be b524 9f3e 2240 a0bd 10b1 18bd
000000f0: 3b4c 3bbe 6c63 ba3d f15f f3bd c29b c9bd
00000100: 159b 713d fa24 42be af00 563d bd66 0ebd
00000110: 596b 493e 599a 3bbc 3851 86be 5d1a 27be
00000120: 78d5 0e3e 9c81 37bc ce56 983d 0f54 17be
00000130: df3f 8d3d daa9 843e e93e 9f3d 38e8 97be
00000140: 536e 4f3e a85c 113e a5f2 553e 703b 593c
00000150: c3f9 c0bd 3863 f6bd 4395 aa3d a8b8 233d
00000160: 9984 2abe 3bd2 c03d 64eb 613e 5417 9bbe
00000170: b342 5fbe 740c 433e 882b ad3e 3af9 0e3d
00000180: acc3 d1bd d001 04be 7fd4 b33d 8a7e 8ebe
00000190: 5e2c 0bbe 18b7 05bd 9941 1dbe d4bb 55be
000001a0: cbd6 073e d895 5e3e 163b ea3c 4ef4 91be
000001b0: 2c57 54be 2af8 23be e41c a83e 6957 01bd
000001c0: b697 5b3e 5679 cdbd aa33 57bd ca8b 5dbd
000001d0: 2479 e53d 1338 843d 668e 3abe 3edb 52bd
000001e0: 9dd1 2fbc 04b8 0c3e e20d 57bd 0156 533e
000001f0: 0581 e4bc 95e0 dfbd a767 14bc a2a6 093e
00000200: b208 18be d4bc 673e 30bc 88be 11a8 123e
00000210: 9756 713e eae6 73bd b484 7fbc 09f2 a3bd
00000220: 001c 143e 94bf 6d3c bb24 de3d f77b b03e
00000230: 9fc4 873e f269 d3bd 87fa 463d 513b f2bd
00000240: 7797 803e 01f0 8c3e 631b 58be 32ae 13be
00000250: 2660 69be 5cd0 953d 1822 5e3e 8955 ac3c
00000260: a17e 51be 5867 f63d c60f 27be 0d60 6fbd
00000270: 235d 203e 8dbc 4c3e e9b2 ce3c 0fe9 07be
00000280: 5d7f 2c3e 6312 9fbd 6a27 5c3e 3a61 003e
00000290: 8978 00bd 3864 40be 694d 0abe 001e fd3d
000002a0: 6505 08be 9c64 273e ea70 cf3c d918 333d
000002b0: 9099 febd f996 803e e943 b63e ce1c 01be
000002c0: e49f 7ebe 5889 013d b6d1 84be 855b 16be
000002d0: e1b9 3c3d 3edd c23d f7f8 5fbe fa32 353e
000002e0: 7879 6c3e 610a 4dbe b8f3 123e 84b4 10be
000002f0: 313e 7e3c 6bd5 533e d470 38be 3fd0 27bc
00000300: 0db9 b5bd 256c 88be 0a02 a43e 9201 7abc
00000310: a941 85be 5a15 efbc 2b2b 5bbe 4935 97bd
00000320: f442 2b3e 6b34 9cbe 7893 d4bd 7044 123e
00000330: 72ea 04bd c2ae a53e 9ed2 633e f94c 103e
00000340: bb33 1fbc 63d0 cfbc 3c5a 9c3d 49fb e83d
00000350: f4ad 3d3e 1536 8ebd 0147 aebd a95f 883d
00000360: 6809 f8bd e5ac 633d 0172 a23e fae5 60be
00000370: e28e 383e e365 eebc a95b 96bd 75b4 91be
00000380: c7da c83d 8a82 38be cee0 cdbc da8e 613e
00000390: 6df5 f6bd 9c94 d3bd fbfc 563e 53fb 88be
000003a0: e3a6 eabd 5851 ad3d ce8c 09be c473 553d
000003b0: 23f8 2fbe a5a8 6e3e 16e8 cc3d 208d 74be
000003c0: c392 173e 9e75 7a3e c57e 4dbe c194 de3d
000003d0: 728e c7bd 0648 7c3d 57c3 c93d f7ae 80be
000003e0: 5a63 d23d 438c a63e 7f7e 993d 627a 34be
000003f0: d36d 36bd 25c2 07be 71d9 76be fd96 20be
0.20451419 0.0888499 0.018369656 -0.11048826 0.049641952 0.19517204 0.24492085 0.1821582
0.11167381 0.110771626 0.046413492 0.1162317 0.15350875 -0.25203788 0.08169843 -0.28317752
-0.06498607 0.13068382 0.33040527 0.028495088 0.24688861 -0.12401107 -0.08183045 0.10080751
-0.19334632 -0.015995277 0.2146657 0.033105806 -0.09255032 -0.07389836 0.12668264 -0.20166242
-0.044375293 -0.2794757 0.18493009 -0.062942214 -0.17007634 -0.17047411 -0.23694126 0.11568625
-0.091916375 -0.22839141 -0.012768104 -0.12913294 0.012367297 -0.10884344 0.14254503 0.063821726
-0.07047551 0.10483314 -0.28639922 0.17601667 -0.025901575 0.27644524 -0.023938388 0.13830042
-0.12584494 0.31082693 -0.07824732 -0.037278235 -0.18290798 0.091009945 -0.11883534 -0.098441616
0.05898579 -0.18959418 0.052246746 -0.034765948 0.19669856 -0.011450374 -0.2623384 -0.1631865
0.1394862 -0.011200335 0.07438432 -0.1477816 0.06896948 0.25910836 0.07775671 -0.29669356
0.20256929 0.14195502 0.20893343 0.0132588 -0.09422638 -0.12030643 0.08329251 0.039971024
-0.16652144 0.09415098 0.2206245 -0.30291235 -0.21802787 0.19047719 0.33822274 0.03490565
-0.102423996 -0.12891316 0.08780765 -0.27830917 -0.13591143 -0.032645315 -0.15357055 -0.20872432
0.13265531 0.21736848 0.028592627 -0.28506702 -0.20736378 -0.16012636 0.32834542 -0.0315775
0.21444592 -0.100329086 -0.052539505 -0.05408839 0.11204746 0.06456008 -0.18218383 -0.051478617
-0.010731128 0.13742071 -0.052503474 0.20638277 -0.027893553 -0.109315075 -0.009057916 0.13442472
-0.14847067 0.22630626 -0.26706076 0.14321925 0.23568188 -0.05954639 -0.015595604 -0.08005149
0.14463806 0.014511008 0.108468495 0.34469578 0.26517197 -0.10322942 0.048578765 -0.1182772
0.25115559 0.27526858 -0.21104197 -0.14421919 -0.22790584 0.07315132 0.21692693 0.02103688
-0.20458461 0.1203143 -0.16314611 -0.05844121 0.15660529 0.19993801 0.025231795 -0.13272499
0.1684546 -0.07767179 0.2149941 0.12537089 -0.03136495 -0.1878823 -0.13506092 0.12359238
-0.13283308 0.16346973 0.025322396 0.04372487 -0.124316335 0.25115183 0.35598686 -0.12608644
-0.24865681 0.03162512 -0.25941247 -0.1468335 0.046075705 0.09514855 -0.21872316 0.17695227
0.23093212 -0.2002349 0.14350784 -0.14131361 0.015517757 0.20686881 -0.1801179 -0.010242521
-0.08873186 -0.26645008 0.32032806 -0.015259163 -0.26026657 -0.029184986 -0.21403186 -0.0738321
0.1672476 -0.30508742 -0.1037969 0.1428392 -0.032450147 0.32359892 0.22248313 0.14091863
-0.009716923 -0.025367921 0.07634398 0.11376054 0.18523389 -0.06943909 -0.08509637 0.06658871
-0.12111169 0.055584807 0.31727603 -0.21962729 0.18023255 -0.029101318 -0.073417015 -0.2845799
0.098073535 -0.18018547 -0.02513161 0.2202715 -0.1205853 -0.10331079 0.20994942 -0.26754245
-0.11457612 0.08462781 -0.13432619 0.052112356 -0.171845 0.2330652 0.100052044 -0.2388196
0.14802079 0.2445893 -0.2006789 0.10868216 -0.09743966 0.061592124 0.09851711 -0.25133488
0.10272856 0.32528886 0.0749483 -0.1762481 -0.04453833 -0.13257654 -0.24106385 -0.15682597

net.4.bias f4 [32]
00000000: bc60 48be 5fb7 443e 1197 2e3d 5356 213c
00000010: db60 dabd 51c8 0b3d b72c bf3c 21c6 1cbd
00000020: 8a5d cc3d 8bbf 54bd 9c69 3ebe 0221 1a3e
00000030: 7db5 503c 3a77 ffbd 1070 2e3d 0e72 e73c
00000040: 4786 42be 4a4d 09be 0572 453e 4a35 47be
00000050: 3ef8 043e c772 da3d 416a 04be d18e 81be
00000060: 79d4 51be c1b8 563e 8a0c 38bc ae55 b9bd
00000070: 6407 6abc 7ef0 60be 71d7 673d 3c98 cdbc
-0.19568151 0.19210576 0.042624537 0.009847241 -0.10663005 0.034126583 0.023336751 -0.038274888
0.09978779 -0.051940482 -0.18594974 0.15051654 0.012738583 -0.124739125 0.04258734 0.028252628
-0.18996535 -0.1340839 0.19281776 -0.19453922 0.12985322 0.10666423 -0.12931158 -0.25304273
-0.20491208 0.20968916 -0.011233458 -0.09049545 -0.014283989 -0.2196674 0.056601945 -0.025097005

net.6.weight f4 [2, 32]
00000000: 1a8d 1d3e 0d3e 393e 97f3 383e e63e 6dbe
00000010: 0f03 653d 565b 353d 17c7 6f3e 5126 c9bd
00000020: 91ca 2ebe dc13 38be 4bf3 463d 8a2f 303c
00000030: 6c1f 0b3e dec1 433d 4097 b73d eebc babd
00000040: a94a e6bd 41c1 01be 4559 143d 4fe5 d6bd
00000050: 16ec 2b3e a009 5b3d ce96 febd 30fb 0f3e
00000060: 4b4e 3bbe 0504 31be a0da 85bd 9368 8fbc
00000070: 8c91 113d fe5b 12be 3321 0f3e 8af8 4abe
00000080: 2f15 eb3d 2759 203e a5c6 7fbd 0b92 d83a
00000090: a21c c03d 386f 3d3e 57b1 e53d b948 6f3c
000000a0: c7c0 45be 843f e6bc c1ee 20bc a8f6 07be
000000b0: e2b4 dcbd e9f2 cf3d 921d 5b3d 0540 bc3d
000000c0: 8904 2e3d 114f 16be d11e 103d 1006 c53c
000000d0: b310 073e 23d5 183e 306b 293d 7fec 033d
000000e0: 4be3 f63c 62af 2cbe 462b 133d 3650 dabd
000000f0: e9c0 57bd f498 89bd a733 c43d 8491 24be
0.15385857 0.18090077 0.18061672 -0.23168525 0.05591112 0.044276558 0.2341579 -0.098217614
-0.1706946 -0.17976326 0.048571866 0.010753522 0.13586205 0.047792308 0.089643955 -0.09118067
-0.11244709 -0.12671377 0.036217947 -0.10492956 0.16789278 0.053475976 -0.124311075 0.14060664
-0.18291585 -0.1728669 -0.0653584 -0.01750592 0.035539195 -0.14292905 0.13977508 -0.19821373
0.1147865 0.15659009 -0.0624453 0.0016523016 0.09380461 0.18499458 0.112154655 0.014604741
-0.1931182 -0.028106458 -0.009822548 -0.13277686 -0.10776688 0.10153753 0.053494997 0.09191898
0.042484794 -0.14678599 0.03518564 0.024050742 0.13189964 0.14925055 0.041361988 0.032207962
0.030137679 -0.16863778 0.03592994 -0.1065983 -0.052674208 -0.067186266 0.095801644 -0.16071135

net.6.bias f4 [2]
00000000: ff0a 0bbe 1e10 14be
-0.13578413 -0.14459273
