models/pendulum/hamiltonian_dynamics.pth (torch, 5905 bytes, 7 tensors)

net.0.weight f4 [8, 4]
00000000: 137f 9fbd ea21 813d 972a 49bd 024a 633d
00000010: 30da 083d 8926 893a 5a0d 033e 65fb c43e
00000020: 2163 5b3e 6175 b7be 4c29 adbe f01b 1fbd
00000030: f25c 1a3c cb0a 933d d098 09bf 8957 a8be
00000040: ce93 21bf 15ab 5f3d 1999 f2be f95e 4dbe
00000050: db68 a13e 3518 01bf 5cf4 cfbe 7338 93bb
00000060: 1849 ea3e d538 c8be 2f35 083e 874e 98be
00000070: bc9f a7bd 6c10 74be c145 b83e 5dd6 10bf
-0.07787909 0.06305297 -0.049112882 0.0554905 0.033411205 0.0010463755 0.12798062 0.3847305
0.21424533 -0.3583174 -0.3382057 -0.038845003 0.009421574 0.07179793 -0.537488 -0.32879284
-0.6311616 0.054606516 -0.4738243 -0.2005576 0.3152531 -0.5042756 -0.4061612 -0.0044928133
0.4575889 -0.3910586 0.13301538 -0.29747412 -0.08184764 -0.2383439 0.35990718 -0.5657709

net.0.bias f4 [8]
00000000: 8817 e1be 384e 693e dbf1 9b3e 24c1 0d3f
00000010: ca45 e8bd cc6b b83e 0cdc ccbd 97ef ad3e
-0.43963265 0.22783744 0.3045796 0.55372834 -0.11341436 0.36019742 -0.10002908 0.33971855

net.2.weight f4 [16, 8]
00000000: 743b 603e f960 313e 1a6a 77be 92a3 c9be
00000010: 2611 173e 05d8 30bc aea1 80be 9ed2 a1be
00000020: f193 e23c 3231 8abd 8a41 7cbe 2b2d 91be
00000030: baf0 35be cf8c f23b 8aba 5b3e 915f e5be
00000040: 166c c8be b126 08bd f70d 84be d362 7fbe
00000050: 14f9 bb3d bc69 4dbe 07d1 a4be 30c9 cd3e
00000060: 16cb c9bd 3e63 993e cae7 063d 863f cf3e
00000070: db25 d63e e906 89be ff7a ce3d a34c 88bd
00000080: 1d05 973e 420d a93e 9a8e 303e 65c0 99be
00000090: 9808 b03e 9714 74be fa00 59be 7b08 aabe
000000a0: 3cc6 c1bd ce3a 58be 186c 443d d817 5c3e
000000b0: ef90 04be c9fe 33be 7785 68bc a909 ca3d
000000c0: f453 aebe 7c8c f4bd 0170 c33d 6353 d93e
000000d0: 2570 883e 091c aa3e 9c23 abbe ffb4 443d
000000e0: e18b b53e c519 2fbe 06aa 3b3c c8e6 c8be
000000f0: 817c 4ebe 767a 8abe 162a 783e ac07 98be
00000100: 3f62 a53e fb80 d73d 4c4d fd3d 14f3 90be
00000110: d502 083d e04b 92bd e50f 7f3e f5c0 b23d
00000120: 83ee 713d 6013 7ebe 2e66 463a e5ea 6b3e
00000130: 4a74 0ebc e148 583e c982 f3bd 7479 3ebe
00000140: c93a 21bd 82b8 dabd ac24 6ebd 6c61 bf3d
00000150: 9bd1 543e 2d17 4a3e 6996 1fbe 275b b0be
00000160: 31a5 473d 6a89 48bd 1f6d bc3e b302 9a3e
00000170: 38e1 b53e 9c85 923e 55bd 9bbe f952 583e
00000180: cfe4 21bc 5e24 14be d57b c8bd cf53 bebd
00000190: c839 583e e585 a8bc c50b ea3b d63f aabe
000001a0: 5d54 d3be df21 e33d 5a72 a0bd 2e7e aebd
000001b0: c268 aa3e aa22 873e a7cc 5e3c be65 ba3e
000001c0: 732a 20bd f239 fa3d d777 00be 37be 95be
000001d0: 4cb9 163e 577f abbc 068e 0bbe c11d 2bbe
000001e0: a898 d3be ba45 80bd 9b2b 393e f166 b23e
000001f0: deec c63e f03d c93e a2d2 843e 2a56 6bbd
0.2189768 0.17322148 -0.24161568 -0.39382607 0.14752635 -0.010793691 -0.25123352 -0.31606
0.027658435 -0.067476645 -0.24634376 -0.28354773 -0.17767611 0.0074020396 0.21457878 -0.44799474
-0.39144963 -0.033240024 -0.25791904 -0.24940042 0.09178367 -0.20059866 -0.32190725 0.40192556
-0.09853189 0.29958528 0.032935895 0.40478152 0.41825756 -0.26763085 0.100820534 -0.06655242
0.2949609 0.33017927 0.17241898 -0.30029598 0.34381557 -0.2383598 -0.21191779 -0.33209595
-0.09461638 -0.21116182 0.04795465 0.2149347 -0.12945913 -0.17577662 -0.014191977 0.09865124
-0.34048426 -0.11940858 0.095428474 0.42446432 0.2664806 0.33224514 -0.33425605 0.048024174
0.35458282 -0.17099674 0.011454111 -0.39238572 -0.20164682 -0.27046555 0.24234805 -0.29693353
0.32301518 0.10522648 0.12368259 -0.28310454 0.033205826 -0.07143378 0.24908407 0.0872821
0.059065353 -0.24812078 0.00075683265 0.23038824 -0.008694718 0.21121551 -0.1189018 -0.18601018
-0.039362703 -0.10679723 -0.05814044 0.093447536 0.20783083 0.19735403 -0.1558472 -0.34444544
0.048741523 -0.048959173 0.36802003 0.30080184 0.3552339 0.2861756 -0.30417886 0.21125402
-0.009881212 -0.14466998 -0.09789244 -0.09293329 0.21115792 -0.020571658 0.0071425163 -0.33251828
-0.41275302 0.11090445 -0.07834311 -0.085201606 0.3328305 0.26393634 0.013598598 0.36405748
-0.039102983 0.122180834 -0.12545715 -0.29246685 0.14719123 -0.020934744 -0.13628396 -0.16710569
-0.41327405 -0.06263299 0.1808304 0.34844163 0.3885259 0.39305067 0.2594195 -0.05745522

net.2.bias f4 [16]
00000000: db91 b4be ce0f b83c 7109 523e 960c b83e
00000010: bc5e 8f3e 9916 343c 9320 9cbd b98f 283e
00000020: ecdf f0bc a6d1 833e aa87 dabd 1664 c63d
00000030: 2086 d3be 30ec 4a3d 2831 c9be ca19 fdbd
-0.3526753 0.022468474 0.20511414 0.35947102 0.28001964 0.010991716 -0.076234005 0.16461076
-0.02940365 0.25745887 -0.10670407 0.09687059 -0.41313267 0.049541652 -0.39295316 -0.123584345

net.4.weight f4 [32, 16]
00000000: a4e1 4e3e 0a86 8a3d 846f 5abe 2680 0f3e
00000010: 9b79 3f3e 4bc7 a03b 1d1c 9bbe e044 b03e
00000020: cda5 ccbd f293 0ebd 3a48 36be 6dfe 83bc
00000030: 6bca dc3b d4ea e23d 72e6 e1bc 8523 103e
00000040: 208d 543d bd2d 4dbd 3491 153e 165a b5bd
00000050: 972d 40be 7f29 1abe 0129 14bd 3b51 633d
00000060: d9df 22be 1e46 cfbd 3a6f 1fbb f719 84bd
00000070: b732 513e fae8 82be 685b 0b3e ab8d 8ebe
00000080: 4b09 6e3e 938e 8a3e f706 10be 1cf7 a1bc
00000090: 3ae8 d83d a3ce fd3c 8cd2 acbc 806d 723e
000000a0: 85e1 ebbd b149 a2bb 28bb f03d 1238 153e
000000b0: b4fe 50bd 336a 5bbe 1522 be3d bd2c f0bc
000000c0: 646f 48be 81bb 3dbe 0afe 0b3e 8f8f 273e
000000d0: c461 253e bd7b e43d 76aa 7f3c c8e8 063e
000000e0: b594 9fbe cada d9bd fe0e bfbc 3e44 19be
000000f0: a001 e23d d303 d43d 7d41 69bd fcdb c53d
00000100: dfad 903d 9e3d d5bd 0faa 1b3e 6d8d adbe
00000110: 03a1 22be ba38 a3bd 85a1 7cbe 3aaf e4bc
00000120: 9bee b3bb 2ac4 0f3e df09 8c3c 12e5 e4bc
00000130: 2cc5 d43d cc81 7fbe 235b 4b3e a00b 763d
00000140: 637c 56be d486 8dbd 6b39 183e 8d2d 113d
00000150: 9b50 033d 44f3 073e a2e3 c03c 736b 7ebe
00000160: 5bd7 9abd 7769 5a3e bd46 3ebe 6731 063e
00000170: 25d6 2abe 5a36 a33e 0bbe 273d 4eba a63e
00000180: cc4e 063e 3883 883d b447 38be a1d1 4ebe
00000190: 346e 59bd 628d 2bbd 3402 72bd e2b8 e43d
000001a0: e01f 57bd 17c6 84be 0ae8 293d ba55 94be
000001b0: 7cf2 55bd 659f 62be 862c 333d 8d8a 55be
000001c0: 463c a0bd e34a 12bd 2866 6cbd 902e 473e
000001d0: e7ac cd3d 0627 b63d 4b26 f23d a649 55be
000001e0: 415b 063e ea68 913e 4383 5a3e 0bdd d83d
000001f0: f343 55be 1a0f c63c f466 3e3d 38a9 b93d
00000200: 3923 d53d f372 9abd 6ba8 8a3e 42ca 543e
00000210: c4bc 9ebd 305d a33e 2c4d 913e 70cb 06be
00000220: 534d 35be d6c8 09bd b912 33be eca9 a63e
00000230: dcb2 17be a8f9 99bd 9fc5 dcbb 13aa c7bd
00000240: a3ea d1bd a5a8 ab3d c511 243e e410 713d
00000250: c38d 36be d6d5 8ebd 0a98 ad3d b804 9ebd
00000260: a160 66be fea3 263e a888 053e a7ff 16be
00000270: 53d8 12be 6cc8 ae3e 9628 c63b cd48 573e
00000280: e5df fd3d 5f97 92bd d043 ea3d 2c4f ff3c
00000290: 85fa 633e 3745 52bd 36a3 353e 101c 54be
000002a0: 4f54 ae3d 7f02 aa3e 7411 07be a8e3 07bd
000002b0: 9c56 793d f183 5fbd 024a 033d f358 6f3e
000002c0: 5228 813d 5c5f abbe 1034 893e b952 243e
000002d0: ab2e e23d 2128 133e 6179 e5bd 2035 163e
000002e0: 2640 293e 3cf5 2f3e 7b02 ccbd 5b52 603d
000002f0: 12c7 d7bd b798 153d 989e e53d 40b5 413e
00000300: 96dc 343e e7b4 833e 9b41 a1be 7b56 05be
00000310: bcf4 173e cba9 86bd 545d d23c 9c44 613e
00000320: ad8e 2dbe c366 80be f2b0 c13c bd8b 2bbd
00000330: c908 993e 2637 86bc a75e 843e 1093 6ebd
00000340: fb8a 923d 2ecc ad3e 7c85 c6bd 40f5 073d
00000350: fb9c 61bd 9da8 053b ef84 4c3d 6b3b 833e
00000360: a97f 3b3d 14f1 263d dd3d edbd e09f 92bd
00000370: a744 fcbd f157 70be f94d 213e cda4 0c3e
00000380: 5c3f f23d 09a5 5d3e ef33 df3c dde3 61be
00000390: 9824 5a3e 8457 91be 95cf ea3d 6dcd ae3e
000003a0: b6d6 5a3e e0dc 9fbe 733d 02be 03f7 983d
000003b0: f38d 7abd 3166 73be b659 14be 3afc e6bd
000003c0: 49fe 8cbe d4da c6bd 6039 1a3e 741d c8bc
000003d0: 6c11 863c 1565 abbd f11d 893e ddd4 9dbd
000003e0: 1730 e8bd be3f 273e 0b74 43be 4088 293e
000003f0: 0164 02be 6916 573e 6a73 3ebe c9d9 e5bc
0.20203263 0.06763847 -0.21331602 0.14013728 0.18698733 0.00490657 -0.30294886 0.34427547
-0.099925615 -0.03480906 -0.1780099 -0.01611253 0.0067379973 0.11079946 -0.027575705 0.1407605
0.0518924 -0.050092448 0.14606172 -0.08855073 -0.18767391 -0.15054892 -0.036171917 0.05549739
-0.15905704 -0.10120796 -0.002432777 -0.06450265 0.20429502 -0.25568372 0.13609087 -0.2784246
0.23245732 0.270619 -0.14065157 -0.019771151 0.10591169 0.030982321 -0.02109649 0.23674583
-0.11517624 -0.0049526324 0.11754447 0.1457217 -0.051024154 -0.2142723 0.092838444 -0.029318208
-0.19573742 -0.18528558 0.13671127 0.16363357 0.16150576 0.11156414 0.015604606 0.13174736
-0.31168142 -0.10637434 -0.023322579 -0.14967439 0.11035466 0.10352292 -0.05694722 0.09661099
0.07064413 -0.10412143 0.15201591 -0.33896962 -0.15881734 -0.07969804 -0.2467099 -0.027915586
-0.0054910905 0.14039674 0.01709455 -0.02794126 0.1038917 -0.24951857 0.19858985 0.06006968
-0.20945887 -0.06910482 0.14865653 0.03544383 0.032059293 0.13276392 0.023546044 -0.24845676
-0.07560607 0.21329294 -0.18581672 0.13104783 -0.16683252 0.31877404 0.040952723 0.32564014
0.13115996 0.06665653 -0.17996103 -0.20197155 -0.053083614 -0.04188288 -0.059084132 0.11168076
-0.052520633 -0.2593238 0.041481055 -0.28971654 -0.052233204 -0.22131117 0.043743633 -0.20853634
-0.07823996 -0.03571595 -0.05771461 0.19451356 0.10042744 0.08894162 0.1182371 -0.20828876
0.13120748 0.28400356 0.21339135 0.105890356 -0.20826702 0.024177123 0.046484903 0.09065479
0.10407109 -0.07541456 0.27081618 0.2078028 -0.07750848 0.31907034 0.2837919 -0.13163543
-0.17705278 -0.033638798 -0.17487611 0.32551515 -0.14814323 -0.07518321 -0.0067374255 -0.09749236
-0.102498315 0.08381776 0.16022404 0.058854 -0.17827515 -0.0697438 0.08476265 -0.07715744
-0.22497799 0.16273496 0.13040411 -0.14745961 -0.14340334 0.34137285 0.0060473187 0.21023865
0.1239622 -0.07157778 0.114387155 0.031165682 0.22263534 -0.05133554 0.17738041 -0.2071383
0.08512174 0.3320503 -0.13190252 -0.033176094 0.060873613 -0.05456919 0.032053 0.23373775
0.063065186 -0.3347119 0.26797533 0.16047181 0.110440575 0.14370777 -0.11204792 0.14668703
0.16528377 0.17183393 -0.099614106 0.05476604 -0.105360165 0.036522593 0.1121189 0.18916798
0.17662272 0.25723955 -0.31495366 -0.13021271 0.14839453 -0.06575354 0.025679268 0.21998829
-0.16948958 -0.250784 0.023643944 -0.04188131 0.29889515 -0.016383719 0.25853464 -0.05824572
0.07155415 0.3394484 -0.09693429 0.033192873 -0.05508135 0.002039469 0.049931463 0.2563127
0.045776043 0.040757254 -0.11584065 -0.071594 -0.12317782 -0.23471047 0.157524 0.13734742
0.11828491 0.21644987 0.027246444 -0.22059579 0.21303022 -0.28387082 0.114653744 0.34141102
0.21370968 -0.31223202 -0.12718754 0.07468989 -0.06117053 -0.23769452 -0.14487347 -0.11278577
-0.27537754 -0.09709707 0.1506095 -0.024428107 0.01636573 -0.08368889 0.26780656 -0.07706616
-0.113372974 0.1633291 -0.19087236 0.16555882 -0.12733461 0.21004643 -0.18598714 -0.02805795

net.4.bias f4 [32]
00000000: f44f 64be b3fa 54be 5fff 86be cafb 083e
00000010: fd3e 923c dcc0 673e b6f0 88bd 2795 923e
00000020: 129a bf3d 1180 06be b762 a13e 2737 9a3e
00000030: 01b3 043d 5424 c6bd 17b5 68be cdec bebc
00000040: 7aa9 5fbd 007e 24be b1f8 35be c9c7 8fbe
00000050: 546f 4abc fb37 4abd ede2 aa3d 48aa a3be
00000060: 97fe c83d 187e c7bd 1eae 93be 7379 153d
00000070: eb49 393e 0c53 283d ea98 1b3e 8162 55be
-0.22296125 -0.20798759 -0.26366708 0.133773 0.0178523 0.22632164 -0.06686537 0.2862942
0.093555585 -0.13134791 0.31520626 0.30120203 0.032397274 -0.09674898 -0.2272533 -0.023306275
-0.054604985 -0.1606369 -0.1777065 -0.2808211 -0.012355644 -0.049369793 0.08344064 -0.31965852
0.09814184 -0.09740847 -0.28843778 0.036492776 0.18094604 0.041094825 0.15195051 -0.20838358

net.6.weight f4 [1, 32]
00000000: 9280 42be d163 4bbe 8877 89be db12 6d3e
00000010: ff79 37be c454 763e 6233 47be 4cbc 253e
00000020: 77f0 153e 3e39 fa3d fe39 463e 6b2a 8c3e
00000030: 9f20 63be ca0b acbd cbe3 fdbd 39dd 213e
00000040: f489 453e a55d d2bd d0c7 17be 4daa 66be
00000050: 0f45 003e f401 49be 9f46 f5bd ce00 cabd
00000060: 0ae8 63be df81 d13d 21ce 48be 8d3d 773e
00000070: 0b8c cbbd ca24 233e 201b 693e 6e4f 1ebe
-0.18994358 -0.19862296 -0.26849008 0.23151724 -0.17917632 0.24055773 -0.19453195 0.16185111
0.14642511 0.12217949 0.1935806 0.27376112 -0.22180413 -0.08400686 -0.12396964 0.15807046
0.19290906 -0.102717675 -0.14822316 -0.22525902 0.12526344 -0.19629651 -0.119763605 -0.09863435
-0.22256485 0.10229849 -0.19609882 0.24144574 -0.099388205 0.15932003 0.22764254 -0.15459988
