models/pendulum/hamiltonian_decoder.pth (torch, 5895 bytes, 7 tensors)

net.0.weight f4 [8, 4]
0	0xbe11bf83	-0.14233212
1	0x3edf8838	0.43658614
2	0xbd84870c	-0.06471071
3	0xbebc42f7	-0.3676984
4	0x3e5017fa	0.20321646
5	0xbe2a48a5	-0.16629274
6	0x3e93bc1f	0.28854463
7	0x3e5c40e5	0.2150913
8	0xbe82eb24	-0.25570023
9	0x3e57ac84	0.21061903
10	0x3e37fea9	0.17968239
11	0xbe3fee9e	-0.18743369
12	0xbe6cee54	-0.2313779
13	0xbf07470a	-0.5284277
14	0xbf1ea19e	-0.6196536
15	0x3dfd50bb	0.12368914
16	0xbe9db4c0	-0.30801964
17	0xbe396ac2	-0.18107131
18	0x3c9f5504	0.019449718
19	0xbdcbe39c	-0.099555224
20	0x3ead7eca	0.33885795
21	0x3d39c059	0.045349453
22	0xbef9af97	-0.48766777
23	0xbec12fcf	-0.37731788
24	0xbf0383f0	-0.51373196
25	0x3e8a36cd	0.26994935
26	0xbea9902e	-0.33117813
27	0xbe8f30dd	-0.27966967
28	0x3dacb97e	0.08433817
29	0xbeeede4d	-0.46653977
30	0xbebab0d8	-0.36463046
31	0xbf0341bc	-0.5127218

net.0.bias f4 [8]
0	0xbe661f14	-0.22472793
1	0xbec83bd9	-0.3910816
2	0xbec630ba	-0.3870905
3	0x3e8cb798	0.2748382
4	0xbd956006	-0.07293706
5	0xbd1b712a	-0.03794972
6	0x3dbd0542	0.092295185
7	0xbda3b71f	-0.07993912

net.2.weight f4 [16, 8]
0	0xbec38f50	-0.38195276
1	0x3e044e30	0.12920451
2	0x3da2222a	0.079166725
3	0xbea7985b	-0.32733425
4	0xbe0c941a	-0.13728371
5	0x3dcf5e03	0.10125353
6	0x3d02b4c0	0.031910658
7	0xbeb95222	-0.36195475
8	0xbe8481f3	-0.25880393
9	0x3debdeb8	0.115170896
10	0x3df92a35	0.121662535
11	0xbec14de5	-0.3775474
12	0xbd0b7d05	-0.034054775
13	0xbe7eeae1	-0.24894287
14	0xbd8037cd	-0.06260643
15	0x3dea3804	0.114364654
16	0xbd0b65e5	-0.03403272
17	0x3e679e7f	0.22619055
18	0xbe18d809	-0.14926161
19	0xbe1d17c6	-0.153411
20	0xbeb71fbd	-0.35766402
21	0xbe2aa137	-0.16663061
22	0x3d73046a	0.05933038
23	0xbdc05394	-0.09390941
24	0x3e127dce	0.14305803
25	0x3ee2e245	0.44313255
26	0xbe8a2400	-0.2698059
27	0xbe16aca3	-0.14714293
28	0x3e3cc7cc	0.18435591
29	0x3c9f8b77	0.019475682
30	0xbe89da2e	-0.2692427
31	0xbe17dc12	-0.14830044
32	0xbd089831	-0.033348266
33	0xbe9ae1d3	-0.30250415
34	0x3ec8f21c	0.39247215
35	0xbe5d3198	-0.2160095
36	0x3e710c9f	0.23539971
37	0x3e8d37e9	0.2758172
38	0x3ea86035	0.328859
39	0xbdd01d4e	-0.101618394
40	0xbe6ebaaa	-0.23313394
41	0xbe34298a	-0.17593971
42	0x3ecbfa0a	0.39839202
43	0x3da0dd81	0.078547485
44	0xbd9b1090	-0.075715184
45	0xbea3846e	-0.31936973
46	0x3c0a5a5e	0.008444397
47	0xbd9b52a0	-0.07584119
48	0x3e4c4224	0.19947106
49	0xbd4b2aca	-0.049601354
50	0x3e689d71	0.22716309
51	0xbeb99d22	-0.36252695
52	0x3e898078	0.26855826
53	0xbd89ba6b	-0.067250095
54	0xbce1bc68	-0.02755566
55	0x3e4b18e0	0.19833708
56	0x3ea01f7f	0.3127403
57	0xbeb9e5b2	-0.36308056
58	0x3db188f1	0.086686976
59	0xbe58ca5d	-0.21170945
60	0x3e5baf31	0.21453549
61	0x3d375e8d	0.044767905
62	0x3e982d1e	0.29721922
63	0x3d2ac880	0.041695118
64	0x3e429d36	0.19005284
65	0x3e8e55f8	0.27799964
66	0xbdd017ba	-0.101607755
67	0xbd2a22a2	-0.041536935
68	0xbddba25a	-0.107243255
69	0xbeb2fce4	-0.34958565
70	0xbc919fbb	-0.01777636
71	0xbe24c955	-0.16092427
72	0x3e174449	0.14772142
73	0xbeac812c	-0.336923
74	0xbe5e911b	-0.21735041
75	0x3decb2ff	0.11557578
76	0xbe986d8d	-0.2977108
77	0x3eb3f648	0.35148835
78	0x3e51b424	0.20478874
79	0x3e965fcd	0.29369965
80	0xbe7db357	-0.24775444
81	0x3d7f392f	0.062310394
82	0x3e86ccfa	0.2632826
83	0xbe8920db	-0.2678288
84	0xbe71e890	-0.23623872
85	0xbe08f49c	-0.13374561
86	0xbca23f28	-0.019805506
87	0xbe3a3ec4	-0.18188006
88	0x3e6d2b44	0.23161036
89	0xbe2085cf	-0.15676044
90	0xbe8f109d	-0.27942362
91	0x3e1f9cf9	0.15587224
92	0x3ebe6d41	0.3719273
93	0x3e55d3cb	0.20881574
94	0x3e94ed05	0.29087082
95	0x3e874563	0.26420125
96	0x3cdd86d3	0.027041828
97	0xbe928c08	-0.2862246
98	0x3e6fd806	0.2342225
99	0x3de86a81	0.11348439
100	0xbdcdf5ba	-0.10056634
101	0xbdfb5b32	-0.122732535
102	0x3ec3e6ff	0.38262174
103	0x3ea341a3	0.31886014
104	0xbdbf17fe	-0.09330748
105	0xbd0ef01b	-0.03489695
106	0xbe131e14	-0.14366943
107	0x3eb1b79b	0.34710392
108	0xbe8f53ae	-0.2799353
109	0xbcd17076	-0.02556632
110	0xbe68fdd0	-0.22753072
111	0x3e9bf79a	0.30462343
112	0x3e8b2924	0.27179825
113	0xbea65123	-0.32483777
114	0x3e90d15d	0.28284732
115	0xbdad215e	-0.0845363
116	0xbe6cf239	-0.23139276
117	0xbc35f5f7	-0.011106006
118	0xbe3b9c84	-0.18321425
119	0x3e23bd67	0.1599022
120	0xbd3649b4	-0.044503883
121	0xbe45d2f8	-0.1931876
122	0xbeb32e1e	-0.34996122
123	0x3e102de5	0.14080007
124	0x3dc104ec	0.09424767
125	0x3de3bff7	0.11120599
126	0xbd151c92	-0.0364042
127	0x3e45d7b7	0.1932057

net.2.bias f4 [16]
0	0xbdb86389	-0.0900336
1	0xbeaee904	-0.34162152
2	0xbe252d75	-0.16130622
3	0xbe142591	-0.14467455
4	0xbe5a89cc	-0.21341628
5	0x3e2a11ee	0.16608402
6	0x3e8960c2	0.26831633
7	0xbe65a8b2	-0.22427633
8	0xbe5f1711	-0.21786143
9	0x3ea2c3c6	0.31789988
10	0x3e6fd561	0.23421241
11	0xbe2cb3dd	-0.16865487
12	0xbdc91189	-0.09817798
13	0x3e018895	0.12649758
14	0x3d6bdab2	0.05758161
15	0xbce7b108	-0.028282657

net.4.weight f4 [32, 16]
0	0xbe09cad1	-0.13456275
1	0xbe975e92	-0.2956434
2	0x3e036731	0.12832333
3	0xbc737463	-0.014859292
4	0x3de61320	0.112341166
5	0xbe1ab371	-0.15107514
6	0xbdb9b23a	-0.09067197
7	0x3bff92f1	0.007799499
8	0x3e1fbe6a	0.15599981
9	0x3e063db6	0.13109478
10	0xbde6d12a	-0.11270364
11	0xbdb333c7	-0.0875011
12	0xbd807b43	-0.0627351
13	0x3dc8e223	0.09808757
14	0x3dd843d4	0.10559812
15	0x3e159b21	0.14609958
16	0xbe84b0da	-0.25916177
17	0xbe645bbc	-0.22300619
18	0x3d9b7227	0.07590132
19	0x3c840bdb	0.016118934
20	0xbc3167a1	-0.01082793
21	0xbe6bb528	-0.23018324
22	0x3da103bf	0.07862043
23	0x3e645f87	0.22302066
24	0xbdd72e21	-0.10506845
25	0x3e5f1925	0.21786936
26	0xbac10d82	-0.0014728757
27	0x3e90757a	0.28214628
28	0x3d84abf4	0.0647811
29	0xbe2290a6	-0.15875491
30	0x3de13119	0.10995693
31	0x3e0c4bf0	0.13700843
32	0xbe230299	-0.1591896
33	0x3c8fdd85	0.017561683
34	0xbddead00	-0.10872841
35	0x3e11e6b8	0.14248168
36	0xbe35121c	-0.1768269
37	0x3e6c70ff	0.2308998
38	0x3dde020f	0.108402364
39	0x3de69d90	0.112605214
40	0x3e65e3ec	0.22450227
41	0x3db48b71	0.08815659
42	0x3e88b070	0.2669711
43	0x3cf1f625	0.029536316
44	0xbe6d8bd9	-0.23197879
45	0xbe51fc4a	-0.20506397
46	0xbe168cbd	-0.14702125
47	0x3e3eba95	0.18625863
48	0x3da3c815	0.07997147
49	0x3db1adc3	0.086757205
50	0xbdf44601	-0.11927415
51	0xbcf915cf	-0.030405907
52	0xbdf30edb	-0.11868068
53	0xbdfe9f57	-0.124327354
54	0xbe756938	-0.23965919
55	0xbd52e2ef	-0.051485952
56	0xbe85f70a	-0.26165038
57	0xbe29d87b	-0.16586487
58	0x3e286a68	0.16446841
59	0x3d545be5	0.05184545
60	0xbd4665b4	-0.048436835
61	0x3e661a79	0.22471036
62	0x3e762940	0.24039173
63	0x3e660ae9	0.224651
64	0xbe072d47	-0.13200866
65	0x3d49eaaa	0.04929606
66	0xbc2427a8	-0.01001922
67	0x3e3beb0d	0.18351384
68	0x3cd2031c	0.025636248
69	0xbdc951db	-0.09830066
70	0xbe4c8393	-0.19972067
71	0x3df31f27	0.11871176
72	0xbdbd778c	-0.092513174
73	0xbd5e2265	-0.05423202
74	0xbde4f691	-0.11179841
75	0x3e239529	0.15974869
76	0xbcdbfe02	-0.026854519
77	0xbdedfa45	-0.11620001
78	0x3e242d6a	0.16032949
79	0x3dfd82be	0.12378453
80	0xbdfa6fd2	-0.12228359
81	0x3eb0fd21	0.34568122
82	0xbdc440c9	-0.09582669
83	0x3e7f04ac	0.24904126
84	0xbda4798b	-0.08030995
85	0x3d5622ba	0.05227921
86	0x3e03807b	0.1284198
87	0xbd974b67	-0.07387429
88	0xbcad767b	-0.02117466
89	0xbe462769	-0.19350971
90	0x3ea6b067	0.3255646
91	0xbe06db83	-0.13169675
92	0x3c58731b	0.013211037
93	0x3df7bb02	0.12096216
94	0x3e2654c0	0.16243267
95	0xbd0c2d00	-0.034222603
96	0x3e023064	0.12713772
97	0x3e6265e4	0.2210918
98	0xbdf45532	-0.11930312
99	0x3cbbb1c3	0.022911912
100	0xbe98aeb9	-0.29820803
101	0xbc9cf9d5	-0.019162098
102	0x3d6bbbd2	0.057552166
103	0xbe2f7a21	-0.17136432
104	0x3d3314d9	0.043721054
105	0x3d127718	0.035758108
106	0x3d91538c	0.070960134
107	0x3c4377fd	0.011930463
108	0x3c25151e	0.0100758355
109	0x3d246bde	0.040141933
110	0xbe141f6a	-0.14465109
111	0xbd46633a	-0.048434474
112	0xbea2dc9f	-0.31808946
113	0xbe66f394	-0.22553855
114	0xbde0f12f	-0.10983502
115	0xbe70a3c3	-0.2349997
116	0x3e809a59	0.25117758
117	0xbd517f6e	-0.051146917
118	0x3dc5fd2f	0.096674316
119	0x3e41fa5a	0.18943158
120	0xbea01bcf	-0.31271216
121	0x3ea3ce2f	0.31993243
122	0x3e1c0a8a	0.15238395
123	0xbdcabfe8	-0.098998845
124	0x3e779662	0.2417846
125	0xbe2e0702	-0.16994861
126	0x3dfe4119	0.1241476
127	0xbc7b0189	-0.01532019
128	0x3e8771dd	0.26454058
129	0x3e2261b9	0.1585759
130	0x3d14642b	0.03622834
131	0xbded6445	-0.115913905
132	0x3d9ba6d6	0.07600181
133	0x3cbb9b0e	0.022901084
134	0x3e4cce50	0.20000577
135	0x3e03c621	0.12868549
136	0x3e093b62	0.13401559
137	0xbdf93843	-0.12168934
138	0x3e29030b	0.16505067
139	0xbe7446e9	-0.23855175
140	0xbe3f4f1f	-0.18682526
141	0xbd2fc1c4	-0.0429094
142	0x3e0c3838	0.13693321
143	0xbe2aee16	-0.16692385
144	0x3e99ae53	0.3001581
145	0x3c3a1cd5	0.011359413
146	0x3dbca590	0.09211266
147	0x3e05b812	0.13058499
148	0x3c329332	0.010899352
149	0x3d151496	0.036396585
150	0xbbf2b1c2	-0.0074064443
151	0xbe9f692f	-0.31134936
152	0xbd79b03e	-0.060959093
153	0xbda2b764	-0.07945135
154	0x3e242510	0.16029763
155	0x3e244e40	0.16045475
156	0xbc50c32e	-0.012741847
157	0xbdf97069	-0.12179644
158	0xbe7def33	-0.24798279
159	0xbe00beb5	-0.12572749
160	0x3eaa1872	0.33221775
161	0x3e9817d4	0.2970568
162	0x3e8692e6	0.2628395
163	0xbdc62079	-0.096741624
164	0x3e166bd5	0.14689572
165	0x3d946a22	0.07246806
166	0xbe6d779d	-0.2319016
167	0xbd2b854e	-0.041875176
168	0x3e865b7f	0.2624168
169	0x3d940439	0.07227368
170	0x3e8f296e	0.27961296
171	0xbe912592	-0.28348976
172	0xba4b4d74	-0.0007755377
173	0xbde4c013	-0.11169448
174	0x3e1c9e89	0.15294851
175	0x3deaba25	0.114612855
176	0x3e02248b	0.12709253
177	0xbe80abc2	-0.2513104
178	0xbe85131e	-0.25991148
179	0xbdd5e8ef	-0.10444819
180	0xbe1b3adf	-0.15159176
181	0xbe8df147	-0.27723143
182	0xbb8db8eb	-0.0043250225
183	0xbe252ab9	-0.16129579
184	0x3d2165f8	0.039403886
185	0xbdd0371d	-0.10166762
186	0xbe757b2a	-0.23972765
187	0x3e6fee24	0.23430687
188	0x3e3fdff7	0.1873778
189	0x3d860a60	0.065449476
190	0x3e94f2e4	0.2909156
191	0xbdbf42dd	-0.09338925
192	0x3e8cb50e	0.27481884
193	0xbb1987d5	-0.002342691
194	0x3dccf316	0.100073025
195	0xbdb3d145	-0.08780149
196	0x3dee146b	0.11624988
197	0x3e923839	0.2855852
198	0x3dba8c36	0.09108774
199	0x3e130dda	0.14360753
200	0x3ea957bc	0.3307475
201	0xbe5e564b	-0.21712606
202	0xbd4c01af	-0.049806293
203	0x3d8b77f0	0.06809986
204	0xbd84e39d	-0.06488726
205	0x3d7ba5f8	0.061437577
206	0x3dd1da9c	0.102467746
207	0xbe6a1d8c	-0.22862834
208	0x3df79a28	0.1208995
209	0xbe17b925	-0.14816721
210	0x3cfa025c	0.030518703
211	0xbce3e8be	-0.027820941
212	0x3d96fa2e	0.07371937
213	0x3e15e251	0.14637114
214	0xbe25504b	-0.1614391
215	0xbe028d97	-0.12749325
216	0xbe821531	-0.25406793
217	0x3d937512	0.07200064
218	0xbe56b2ed	-0.20966692
219	0xbdf5b8f0	-0.11998165
220	0xbe24d751	-0.16097762
221	0x3d7c1526	0.061543606
222	0xbd67e28f	-0.056612547
223	0x3e2c49b7	0.16824995
224	0xb9212e9d	-0.00015371521
225	0xbdd042d7	-0.10168999
226	0xbe860507	-0.2617571
227	0x3d25ab8e	0.04044681
228	0x3bbdbb14	0.0057901237
229	0x3df22ff5	0.11825553
230	0xbde0f07f	-0.10983371
231	0x3cb64dec	0.022253953
232	0xbd632eed	-0.055464674
233	0x3ea25f23	0.3171321
234	0xbdf58a71	-0.11989296
235	0x3e129b75	0.14317115
236	0xbdf8b101	-0.12143136
237	0x3d1e2b2e	0.038615398
238	0x3e51ccb1	0.2048824
239	0x3ea31055	0.31848398
240	0xbe034033	-0.12817459
241	0xbe6f4b87	-0.23368655
242	0x3c18c943	0.009325328
243	0xbe3a2f74	-0.18182164
244	0xbe1d5db2	-0.15367773
245	0x3e01c31f	0.12672089
246	0xbc8a7b17	-0.016904397
247	0x3cba81ca	0.022766966
248	0xbd1fc4e8	-0.039006144
249	0xbdb52e8c	-0.08846769
250	0xbd03f3f5	-0.032215077
251	0x3e37fc54	0.1796735
252	0x3e76d9ed	0.2410657
253	0x3e2ad584	0.16683012
254	0xbd501bba	-0.050807692
255	0x3c888e7d	0.016669506

net.4.bias f4 [32]
0	0x3d5872a1	0.052843694
1	0x3e8731c1	0.26405147
2	0x3d7d307d	0.06181382
3	0x3e3eca56	0.18631873
4	0x3e21edeb	0.15813415
5	0xbe7ace35	-0.24492724
6	0x3d99bd32	0.07506789
7	0xbdd2a2bd	-0.10284946
8	0xbe3ceff9	-0.18450917
9	0xbe5731f9	-0.21015157
10	0xbc9b80f8	-0.018982396
11	0x3e622506	0.22084436
12	0xbe2f2715	-0.17104752
13	0xbd82fa06	-0.063953444
14	0x3df44ced	0.11928735
15	0xbd51872c	-0.0511543
16	0x3dfa0e20	0.122097254
17	0xbdb2a1b8	-0.08722252
18	0xbdfba63e	-0.122875676
19	0xbc985748	-0.018596306
20	0xbd9324a5	-0.07184724
21	0x3e929eb2	0.286367
22	0xbd37830f	-0.04480272
23	0xbe72b863	-0.2370315
24	0x3e94e979	0.29084376
25	0x3ce4281e	0.02785116
26	0xbe0469f9	-0.1293105
27	0xbcd3804e	-0.025818016
28	0x3e54f1a0	0.20795298
29	0x3e853c04	0.2602235
30	0xbc06c087	-0.008224613
31	0x3ebd6a3c	0.36995113

net.6.weight f4 [1, 32]
0	0x3e2719e5	0.16318472
1	0x3e27b6d7	0.16378342
2	0xbd68f711	-0.056876246
3	0x3d9802b2	0.07422389
4	0xbd273b74	-0.040828183
5	0xbe0f8571	-0.14015748
6	0xbd83b2cf	-0.064305894
7	0x3e31f31c	0.17377895
8	0xbe0ff28d	-0.1405737
9	0xbe4f3085	-0.20233352
10	0xbe0baeec	-0.13640946
11	0x3e2f3875	0.1711138
12	0xbe18c229	-0.14917816
13	0x3dcc608b	0.099793516
14	0x3e016556	0.12636313
15	0x3dd66e81	0.10470296
16	0x3cf8775e	0.030330356
17	0x3e06712f	0.13129114
18	0x3d92b41f	0.071632616
19	0xbe66b6da	-0.2253069
20	0x3e6083ce	0.2192528
21	0x3a6f1410	0.0009120116
22	0x3d2893d9	0.041156624
23	0x3d45264e	0.048132233
24	0x3e375d90	0.17906785
25	0x3dd840c1	0.10559226
26	0x3de93d1b	0.11388608
27	0x3e72a7d0	0.23696828
28	0x3db55d8c	0.08855733
29	0x3e3de2f3	0.18543606
30	0xbd080892	-0.0332113
31	0x3daeb8cc	0.08531341
