models/pendulum/z_decoder.pth (torch, 3943 bytes, 6 tensors)

net.0.weight f4 [8, 2]
000000 b2 ae 06 3f de c1 d3 3e 51 66 f9 3e 23 91 2f bd
       0.52610314 0.41358846 0.48710874 -0.042863023
000010 9d 67 ec 3e 53 58 2f be dc 4c 10 be 55 47 0c 3f
       0.461728 -0.17123537 -0.1409182 0.54796344
000020 6d cc 81 3e 39 7f f8 3e ba 65 25 3d 96 ed 50 3e
       0.25351277 0.48534563 0.040380217 0.20403132
000030 4b 55 fa 3e cc d7 16 bf 7e 99 81 3e 03 47 60 3c
       0.48893198 -0.5892303 0.25312418 0.0136888055

net.0.bias f4 [8]
000000 ab 6b fb 3d 84 3a 0a bf 08 20 8b 3e d8 11 f9 3e
       0.122763954 -0.5399554 0.27172875 0.48646426
000010 7c 42 85 3e 5b 30 8e 3e 59 61 3f bf d7 d3 46 bf
       0.26027286 0.27771267 -0.74757916 -0.7766699

net.2.weight f4 [32, 8]
000000 ea a4 6d 3d 80 fd 33 3e ac 84 b0 be c3 03 b0 3a
       0.058018602 0.17577171 -0.3447622 0.0013428855
000010 75 05 34 3d a1 cb bb be 01 78 ea bc 8a 74 7e 3d
       0.043950517 -0.36678794 -0.028621675 0.06212286
000020 53 25 5a be a0 1a 99 be 4c e2 87 be 75 d9 76 be
       -0.213033 -0.29903126 -0.26539838 -0.24106391
000030 24 ad 9a 3e d2 35 eb bd 1d ee 73 be 61 35 f3 bd
       0.3021022 -0.11484875 -0.23821302 -0.118754156
000040 09 8d da 3b cb ba f0 3d 67 18 7c 3e b5 0c 28 3e
       0.0066696447 0.11754378 0.24618684 0.16411097
000050 03 fb 9b bd 13 7d 83 be b3 ab cb 3d 31 af 96 be
       -0.07616236 -0.25681362 0.099448584 -0.29430535
000060 72 24 87 3e 64 1b 73 3e 70 9e f4 bc 8f d5 20 3e
       0.26394993 0.23740917 -0.029860705 0.15706466
000070 90 70 d5 3d 46 3b 83 be e9 7c 88 bc f7 f0 c9 3e
       0.1042186 -0.2563116 -0.016661124 0.39441654
000080 6f 4c 5b 3e ee 36 34 3e 54 7a 6d be ec 65 21 3c
       0.21415876 0.17599079 -0.23191196 0.00985096
000090 19 ba 03 be 71 c1 29 3e 1d 65 7d be de 5a 84 be
       -0.1286396 0.16577698 -0.24745603 -0.25850576
0000a0 14 94 96 3e 0d e3 38 be 95 ad 1e be 0c 50 2f 3d
       0.2940985 -0.18055363 -0.15495904 0.042800948
0000b0 f0 87 b4 be 3b cf d4 bc 4f da 6e be b0 bc 93 3e
       -0.35259962 -0.025977721 -0.23325466 0.28854895
0000c0 f4 cf be bd 92 95 3d bd f0 64 6b be 2c dc 90 be
       -0.09317008 -0.04628522 -0.22987723 -0.28292978
0000d0 f9 e1 f1 bd 2c e1 16 be ee 65 07 bd ba 41 b4 3e
       -0.11810679 -0.14734334 -0.033056192 0.35206395
0000e0 9e 24 49 be 74 20 f5 3b 8b 3e 7b 3e d1 29 81 3d
       -0.19642875 0.0074806754 0.24535577 0.06306804
0000f0 f2 78 33 3c 0c dd 15 3e 5c f4 37 bd b5 ec 54 be
       0.010954129 0.14635104 -0.044910774 -0.20793422
000100 f9 41 1f 3e 14 4f 55 be 9c 2e be 3c da 72 79 be
       0.1555251 -0.20830947 0.023215584 -0.24360219
000110 3d 92 07 be ec 3d 43 3c ac 74 95 3e 26 34 5b be
       -0.13239379 0.011916619 0.29190576 -0.21406612
000120 9b 3c af 3d a3 57 a5 3e 8f 74 16 bd 81 52 c2 bd
       0.085564815 0.32293424 -0.036732253 -0.094883926
000130 b7 9d e6 3d 8f c7 c5 be e9 5f eb bc 91 f7 85 3e
       0.112605505 -0.38628814 -0.028732257 0.2616544
000140 99 5d 2e bd 4f 0a 90 be 6d 56 d5 bd af 7e 5d be
       -0.04256973 -0.28132865 -0.10416875 -0.21630357
000150 d2 cc 52 be d3 a5 39 3e 25 a4 52 3e d2 f9 af 3e
       -0.20585945 0.18129663 0.20570429 0.34370285
000160 91 b1 ac be 1f bc 54 3e 98 0e 88 be d9 31 38 3e
       -0.33729222 0.20774888 -0.26573634 0.17987765
000170 61 2e 79 3e d7 6d d2 be df ba 86 3e b5 f7 9c 3e
       0.24334098 -0.41099426 0.26314446 0.30657735
000180 56 93 9e be f3 97 05 3e 0a 88 2c 3e 7d 3c 36 be
       -0.30971783 0.13046245 0.1684877 -0.17796512
000190 30 f5 8a 3e e8 15 39 be 74 bb 2f 3e 10 45 ca 3e
       0.27140188 -0.18074763 0.17161351 0.39505816
0001a0 60 90 de bd 38 b2 61 3d 62 b7 b8 be c2 d6 f6 bc
       -0.10867381 0.055101603 -0.3607741 -0.030131701
0001b0 f9 c6 24 3c 25 6d ac 3a 4c 97 6f 3e 8c 7e 81 be
       0.010057204 0.0013155086 0.23397559 -0.2529186
0001c0 b7 c4 94 bd bf c1 a6 bc 26 b4 8f be ea dd 7a be
       -0.07264083 -0.020356057 -0.2806713 -0.24498716
0001d0 bb 83 76 be 5e d3 2b be e1 36 75 be 5c 91 a8 3e
       -0.24073689 -0.16779849 -0.23946716 0.329234
0001e0 bf 52 02 be cb 91 7c 3e 32 5b 17 3d e9 bd 84 3e
       -0.12726878 0.2466499 0.036952205 0.2592614
0001f0 f8 ee 08 bd 6a ed 03 3e b3 23 29 3e 00 c2 74 bd
       -0.033431023 0.12883535 0.16517524 -0.059755325
000200 41 27 ae 3e b8 71 70 be b0 5d 02 3e 2b 3d 88 be
       0.34014323 -0.2348088 0.12731051 -0.26609167
000210 65 d2 1a 3e 96 75 2f be e7 98 a7 3d 5b f4 47 3e
       0.15119322 -0.17134699 0.08183461 0.19526808
000220 23 f3 37 be 96 5a 14 3e 0e a9 f2 3d 42 de af 3b
       -0.17963843 0.14487681 0.11848651 0.0053670714
000230 49 e5 d9 bd 21 81 e5 3d 6c 21 c9 bd 89 0b 56 bc
       -0.10639436 0.1120627 -0.09820828 -0.013064274
000240 da b5 a9 be 9c 02 2b be e8 9b 80 3d 6b da 1f 3e
       -0.33146554 -0.16700214 0.06279737 0.15610664
000250 cc 91 a2 3e e5 21 ee bd 0c 92 a5 be 4d 2f 84 3d
       0.3175186 -0.116275586 -0.32337987 0.064543344
000260 04 2b c9 be 0b ad 0d 3e ab 01 94 be 3c a0 8a be
       -0.3929063 0.13835542 -0.28907523 -0.27075374
000270 a9 0f 12 3e e0 84 75 be d4 dd 87 3e e6 33 5d 3e
       0.14263786 -0.23976469 0.2653643 0.21601829
000280 6b ae 13 3e 61 cd b0 3e f2 dd 8c 3e 8a 04 97 3e
       0.14422004 0.34531692 0.2751308 0.2949565
000290 d3 38 e5 bd 81 45 4c bd 05 8e be bd 6e 14 d0 3e
       -0.11192479 -0.04987097 -0.09304432 0.40640587
0002a0 8f 9b b1 bd d0 36 4c be a9 e2 dd bd 91 32 4d be
       -0.086722486 -0.19942784 -0.108342476 -0.20038821
0002b0 36 b7 9a be 0a 94 60 3d 15 28 27 3e 41 50 0f 3e
       -0.30217904 0.05482868 0.16323884 0.13995458
0002c0 32 96 6f 3e a2 1f 90 3e f2 a5 aa 3e a3 bc 54 3d
       0.23397139 0.28149134 0.3332973 0.05193771
0002d0 65 2d eb 3d 11 2b 55 3e 20 cf b3 be 24 09 4b 3e
       0.11483268 0.2081721 -0.3511896 0.19827706
0002e0 68 ae d1 bd 31 72 83 be 7b fc 0f be bc 8c 46 3e
       -0.102383435 -0.2567306 -0.14061157 0.19389623
0002f0 66 81 c1 3d b2 ab be 3e 8a e3 6c 3e 5e 0f a4 be
       0.09448509 0.37240368 0.23133674 -0.32042974
000300 a5 61 79 3e 38 19 88 be 7f 4b f9 3d 7b 48 3f 3e
       0.24353655 -0.2658174 0.12172603 0.18679993
000310 a4 fb 08 be a5 20 3b be cd c0 8a 3d 2a 04 86 3e
       -0.13377243 -0.18274172 0.06775055 0.26175052
000320 6f 2a c1 3b ea bb 62 3d ed 83 3b bd 68 85 86 3e
       0.005894951 0.05535499 -0.04578011 0.26273656
000330 5f 49 6c bd af 29 02 be 2a d5 8f 3c b5 41 96 3e
       -0.05768716 -0.12711214 0.0175577 0.29347005
000340 dc 82 10 be 96 13 8a 3e 46 f8 82 3e 9c 67 a3 be
       -0.14112419 0.26968068 0.25580043 -0.31914985
000350 ad 18 e5 bd 80 30 02 bb 11 3c 26 3e 70 99 ba be
       -0.11186347 -0.0019865334 0.16233851 -0.3644519
000360 f1 6b a3 3e 71 ef 51 3d cc 3f 14 3e ee 0d b8 3c
       0.3191829 0.05125374 0.14477462 0.02246758
000370 89 0e 72 be 8d 33 aa 3d dd 79 8d be 23 06 87 3e
       -0.23638357 0.08310614 -0.27632037 0.2637187
000380 bc b6 8e bd 1f 70 86 be 14 bc 92 bd 30 76 d5 3d
       -0.069684476 -0.26257417 -0.07164779 0.10422933
000390 e4 81 79 3e 3d fd be bd c9 38 b9 3e e4 2d 66 3e
       0.24365956 -0.09325645 0.36176136 0.22478443
0003a0 21 ea 74 be 50 32 d1 bd 0b 09 b2 be 2c 21 a3 bd
       -0.23917438 -0.102146745 -0.34772524 -0.079653114
0003b0 5c 5e a2 be 1d 8f 7e be 92 63 49 3d b3 36 8f bd
       -0.31712615 -0.24859281 0.049167223 -0.06992855
0003c0 0f cb f3 bd 03 24 8d 3e 8f 26 06 be d1 68 a4 be
       -0.11903965 0.27566537 -0.13100646 -0.3211122
0003d0 e5 15 bf 3d df 68 db 3c b5 1e 28 be 43 fa 7b be
       0.09330348 0.026783405 -0.16417964 -0.24607186
0003e0 0f 93 af 3e ad 3c 6e 3e ab bf bd 3e 2d a1 9d be
       0.34291884 0.23265333 0.37060294 -0.3078703
0003f0 f5 a2 99 bd 8d 6e 48 be da 2d 8c be 8d 6e 6c 3e
       -0.07501785 -0.19573422 -0.27378732 0.23089047

net.2.bias f4 [32]
000000 4b 27 ef 3d 47 5a 2b be 27 cb 66 be bb 9d c6 3d
       0.116774164 -0.16733657 -0.22538434 0.096980534
000010 73 2a c7 be fb a8 bc 3d d5 83 a2 be ac 81 d6 3e
       -0.38899574 0.09211918 -0.31741205 0.41895807
000020 6d d8 89 3e 30 c1 be be 37 23 ce 3d b9 51 c1 bd
       0.26922932 -0.37256765 0.100653104 -0.094394155
000030 43 da b8 3d f6 7d 94 3e 68 61 d2 bd 7a f2 a9 be
       0.09026005 0.2900235 -0.10272485 -0.33192807
000040 1b 49 f7 3d 89 da a2 3e 86 9b 43 be 1f f6 16 3e
       0.12074491 0.31807354 -0.19102296 0.14742325
000050 a8 b3 6f 3c 02 67 2e be f0 b9 de 3d 0e 27 93 3e
       0.014630236 -0.17031482 0.108753085 0.28740734
000060 c9 b1 8c be d8 d1 58 be c8 19 50 bd 3a 41 5d 3e
       -0.2747939 -0.21173799 -0.050805837 0.21606913
000070 6d 3c 9a be 84 65 71 be 23 2c d0 be 27 b9 c1 bd
       -0.30124226 -0.23573881 -0.40658674 -0.09459143

net.4.weight f4 [4, 32]
000000 54 67 38 3c 57 2c 10 bc 9e 93 10 bd 52 eb b1 3d
       0.011255104 -0.008799634 -0.03529703 0.08687462
000010 50 eb ee 3d b1 84 e8 3d 4a d7 39 3e 24 5a 8e bd
       0.11665976 0.11353434 0.18148533 -0.06950787
000020 89 03 8a be f3 f8 47 3e be eb 8d 3d f8 fb 74 3e
       -0.26955822 0.1952856 0.0692973 0.23924243
000030 7f bf 80 3a 64 0d 83 3d 04 f5 19 3e 2a de 85 bd
       0.0009822695 0.063990384 0.15034872 -0.06536515
000040 86 32 c1 bd 06 f3 f7 bd 24 3e 25 3e 46 40 1e 3c
       -0.09433465 -0.121069 0.16136986 0.009658879
000050 b9 fe ae 3d 5a f8 45 3e 24 d7 ed 3d dc b9 73 be
       0.08544678 0.1933302 0.116133004 -0.23801368
000060 83 95 e7 3d e7 0f 60 3e 51 82 45 3e d9 a9 df bb
       0.11307814 0.21881066 0.19287993 -0.0068256673
000070 eb ef 73 3e 7b 48 db bd 5e 59 c2 3d 9f d2 cc bd
       0.2382199 -0.10707184 0.09489702 -0.1000111
000080 56 ee a1 bd 70 7a f1 bd 18 92 01 3d e1 d6 ba bd
       -0.07906787 -0.11790931 0.031633466 -0.09123016
000090 28 3c 4b bd 70 79 c0 3c c7 a7 0f 3e 1b 4c 2c be
       -0.049617916 0.023495406 0.14028846 -0.16825907
0000a0 33 6f 2c be b1 fd 2a 3e 58 e7 4d bd 60 e6 1d 3e
       -0.16839294 0.16698338 -0.050269455 0.15419912
0000b0 1f 67 fd bc 55 a9 82 be a3 a5 20 3e c8 0d 29 3e
       -0.030932961 -0.25519815 0.15688185 0.16509163
0000c0 eb f3 db 3d 23 b2 7e be 77 40 47 3d 4c 3b 51 3e
       0.10739883 -0.24872641 0.048645463 0.20432776
0000d0 9f f5 07 be 77 98 be bd cb 71 91 3d d6 0d df bd
       -0.13277291 -0.09306424 0.071017824 -0.10891311
0000e0 ac 92 c4 3d 93 c0 7a bd 8f f8 d6 bd 06 50 57 be
       0.09598288 -0.06121881 -0.104966275 -0.2102662
0000f0 60 03 e0 bc bf a8 27 bb 28 27 a9 bd ed 5a 83 bd
       -0.02734536 -0.0025582758 -0.082594216 -0.06413827
000100 2e da f1 bd 88 df 0c be 84 5f a8 3d 95 20 15 be
       -0.118091926 -0.13757145 0.08221343 -0.1456321
000110 99 ea 41 be 33 1a de bd a6 3e a1 bd c0 34 69 3e
       -0.18937148 -0.10844841 -0.07873277 0.22774029
000120 9b d7 98 bd a3 71 41 be 07 8d c1 3c db 98 2f 3d
       -0.074629985 -0.18891005 0.023626817 0.042870384
000130 a5 31 3d be c7 d7 b4 bc 30 5c 9c 3d e8 80 12 be
       -0.18475969 -0.022075547 0.07634771 -0.14306986
000140 4c 0b 83 bd b7 98 4c 3e 08 64 07 3d fd 45 cd 3d
       -0.06398639 0.19980131 0.03305438 0.10023115
000150 5b 3b c8 bd 95 2e bb bd 49 88 cc 3d fc 66 45 3e
       -0.09776946 -0.09139744 0.09986932 0.19277567
000160 6e 38 7b be ba 54 df bd 24 dd b8 3d 1c 4e 32 3e
       -0.24533245 -0.10904832 0.09026554 0.17412609
000170 e8 77 0a be df 6a 39 be 0d d2 fd bd 1d 79 99 bc
       -0.13522303 -0.18107174 -0.1239358 -0.01873451
000180 16 4e 28 3d 6a 16 12 3d 87 0d b6 bd 5f ea 7c 3d
       0.041090094 0.035665907 -0.08889299 0.06174695
000190 05 20 b6 3d 9e a0 bb bd 85 56 30 bb ec 97 a5 bd
       0.08892826 -0.09161495 -0.0026907038 -0.080856174
0001a0 c8 65 ea 3d e9 bb d0 bb 55 a3 ef bd fd 06 eb 3d
       0.114451945 -0.006370057 -0.11701075 0.11475942
0001b0 d3 16 0c 3d 8d e0 ce bd 54 0b 9d 3d 06 3b ca 3d
       0.034201454 -0.101014234 0.07668176 0.09874539
0001c0 dc 28 9f bd ee 94 2c bd 51 f2 b7 3d e6 08 20 be
       -0.07771465 -0.042134218 0.08981765 -0.15628394
0001d0 fe 72 23 be 20 8b 8d 3c d5 d7 e8 bd f7 b8 ba bd
       -0.15961835 0.017278254 -0.11369292 -0.091173105
0001e0 94 ba e0 bc d2 b3 b0 bd 36 4a e2 3d 25 e5 92 bc
       -0.027432717 -0.08628048 0.11049311 -0.01793153
0001f0 9b f5 e6 bd 0a de a2 bd df 8e 03 be ab b0 da 3d
       -0.11277314 -0.07952507 -0.1284747 0.10678228

net.4.bias f4 [4]
000000 e4 ec 5b be 49 42 27 bd df b5 b5 bc 39 c2 57 3d
       -0.21477085 -0.0408347 -0.02218145 0.05267546
