models/pendulum/z_encoder.pth (torch, 6431 bytes, 10 tensors)

share_mlp.net.0.weight f4 [32, 4]
0	0xbdabd30c	-0.08389863
1	0x3d9eeba5	0.077597894
2	0xbec6151d	-0.38687983
3	0xbee9e525	-0.45682636
4	0x3e36d52e	0.17854759
5	0x3e7a51c5	0.24445255
6	0xbe3aab79	-0.18229474
7	0xbebdce6c	-0.3707155
8	0x3ee7f4d0	0.45303965
9	0xbe31b8a2	-0.17355588
10	0x3e151b90	0.14561296
11	0x3ec37bec	0.38180482
12	0x3ec791c0	0.38978386
13	0xbea790a4	-0.3272754
14	0x3e638202	0.22217563
15	0x3edd6fa7	0.43249246
16	0x3d0ee8f8	0.034890145
17	0x3d2d204a	0.04226712
18	0xbef03971	-0.46918824
19	0x3ed892e6	0.42299575
20	0x3edb7a4d	0.42866746
21	0x3da1a2d9	0.07892389
22	0x3df2cd5a	0.11855574
23	0xbd85a1cc	-0.06525001
24	0x3eb21602	0.34782416
25	0xbcee9ecf	-0.02912846
26	0xbdfc48fc	-0.12318608
27	0xbde98c9b	-0.114037715
28	0xbe7d96b4	-0.2476452
29	0xbedb698a	-0.42853957
30	0xbe01ae21	-0.12664081
31	0x3e9207c9	0.28521565
32	0xbdabd307	-0.0838986
33	0x3ec27610	0.379807
34	0xbea0f73d	-0.31438628
35	0xbed58ee2	-0.41710573
36	0x3e05feaa	0.13085428
37	0xbe83bcde	-0.25730032
38	0x3e8ade82	0.27122885
39	0x3e10968f	0.14119934
40	0xbeffeffa	-0.49987775
41	0xbe8c56b9	-0.27409914
42	0xbeacf6e7	-0.33782122
43	0x3e01d12e	0.12677452
44	0xbed0e389	-0.40798596
45	0xbcb27a82	-0.021786932
46	0xbee86d81	-0.45396045
47	0xbe035e1b	-0.12828867
48	0xbe2d5f27	-0.16930829
49	0xbeaac061	-0.33349898
50	0xbe986cf9	-0.2977064
51	0x3eab6ced	0.3348154
52	0xbe847b22	-0.25875193
53	0xbeb38c6d	-0.35068074
54	0x3e10a9a4	0.14127213
55	0x3ef1ea1e	0.4724893
56	0x3d232ed2	0.039839573
57	0x3eb5d677	0.35515186
58	0x3d35b5d6	0.044362865
59	0x3eb6aa42	0.3567677
60	0xbe439efd	-0.19103618
61	0xbe578e0a	-0.21050277
62	0xbeca340f	-0.39492843
63	0xbdcb361b	-0.09922429
64	0xbea901d5	-0.3300921
65	0x3e8ba187	0.27271673
66	0x3e4ce93e	0.2001085
67	0xbe473267	-0.1945282
68	0xbddbfc2f	-0.107414596
69	0x3edd9e0f	0.43284652
70	0x3e985ef1	0.29759935
71	0x3e3a58ab	0.18197887
72	0x3edfa8d9	0.43683508
73	0x3e90de1c	0.28294456
74	0xbef27bd4	-0.47360098
75	0xbe8d3435	-0.27578893
76	0xbedc9bd6	-0.43087643
77	0x3cd986be	0.026553508
78	0x3d78e723	0.060767304
79	0xbeac8c01	-0.33700565
80	0x3e081bd6	0.13291869
81	0x3dcef05b	0.10104438
82	0x38b16de8	8.460489e-05
83	0x3f025bcc	0.5092132
84	0x3e18110b	0.14850251
85	0xbccf09e9	-0.02527328
86	0xbdc3fca8	-0.09569675
87	0x3eece1e6	0.46266097
88	0x3e296e34	0.16545945
89	0xbe9e388e	-0.30902523
90	0xbe88e52b	-0.2673734
91	0xbe961184	-0.29310238
92	0x3db89afe	0.090139374
93	0x3e96cbf9	0.29452494
94	0xbe5b8eb2	-0.21441153
95	0x3e5ec1fc	0.21753687
96	0xbb1cdff4	-0.0023937197
97	0x3e9e44ee	0.30911964
98	0x3e301707	0.17196284
99	0x3d7853bc	0.06062673
100	0x3ef6e2eb	0.4822
101	0xbeb52a5c	-0.3538388
102	0xbee8acc3	-0.45444307
103	0x3e57ea93	0.21085577
104	0x3efbc19f	0.4917116
105	0xbc96f801	-0.018428804
106	0x3d136c56	0.03599199
107	0x3eb9c7d3	0.36285266
108	0x3e0e82ac	0.13917035
109	0xbe397dc8	-0.18114388
110	0x3d9565f7	0.07294839
111	0xbefae934	-0.49006045
112	0xbf009001	-0.5021973
113	0x3eda0439	0.42581347
114	0x3eb3bee5	0.35106578
115	0xbe94199a	-0.28925782
116	0x3e6b6f3c	0.22991651
117	0x3df3478a	0.11878879
118	0xbdadb24e	-0.084812745
119	0xbe1522c7	-0.14564048
120	0x3ea40c13	0.32040462
121	0x3ee5dfe0	0.44897366
122	0x3cd2d3db	0.025735786
123	0x3f0cae8d	0.54953843
124	0x3eca6055	0.3952662
125	0xbe9da809	-0.30792263
126	0xbe200230	-0.15625834
127	0xbe8a5a10	-0.27021837

share_mlp.net.0.bias f4 [32]
0	0xbf00cfee	-0.50317276
1	0x3edc3438	0.4300859
2	0x3ede7581	0.43449023
3	0xbea3d499	-0.31998137
4	0xbdf87b80	-0.12132931
5	0x3d492407	0.049106624
6	0xbe9ccef6	-0.3062665
7	0x3efdb3c1	0.49551204
8	0xbdea898f	-0.114520185
9	0xbea944ca	-0.33060294
10	0xbe078d38	-0.13237464
11	0xbeabb1f1	-0.33534196
12	0x3e773d68	0.24144518
13	0xbda5618f	-0.080752485
14	0xbe1c8a36	-0.15287098
15	0xbef68bd3	-0.48153552
16	0xbef05e6f	-0.46947047
17	0x3ed48f7b	0.41515717
18	0x3e9415d9	0.28922918
19	0x3d9b0137	0.07568591
20	0xbe1de7b5	-0.1542042
21	0x3ee34256	0.44386548
22	0x3ed80db6	0.4219796
23	0xbed39731	-0.41326287
24	0x3ec2d9f5	0.38056913
25	0xbed741c6	-0.4204237
26	0xbece0d46	-0.40244502
27	0x3ec64861	0.38727096
28	0x3effaade	0.4993505
29	0xbe829972	-0.25507694
30	0xbdc92777	-0.098219804
31	0x3eecde34	0.46263278

mean_mlp.net.0.weight f4 [8, 32]
0	0xbdbbea0a	-0.09175499
1	0x3d3d591b	0.046227556
2	0x3db631ad	0.08896194
3	0xbe2b228c	-0.16712397
4	0x3dbbe37c	0.091742486
5	0x3d147e85	0.03625347
6	0x3e0bf6f3	0.13668422
7	0xbd2f9473	-0.04286618
8	0x3cfec6ed	0.031100715
9	0x3db138a9	0.08653385
10	0x3d960b17	0.07326334
11	0x3e06b3ba	0.13154498
12	0x3ddf144e	0.10892545
13	0xbdb6d655	-0.08927599
14	0x3e37a914	0.17935592
15	0xbde26e64	-0.110562116
16	0x3d90145e	0.07035135
17	0xbdd05560	-0.10172534
18	0x3deb17fb	0.11479183
19	0x3e2e61bf	0.17029475
20	0xbe13464d	-0.14382286
21	0xbe0affa5	-0.13574083
22	0xbdf86399	-0.12128372
23	0xbd5c2783	-0.05374862
24	0x3a976b7f	0.0011552422
25	0xbde28f19	-0.1106245
26	0xbe2e9101	-0.17047502
27	0x3dfc63c8	0.12323719
28	0xbd12526b	-0.03572313
29	0xbe29fa5f	-0.16599415
30	0xbdca4ae2	-0.09877564
31	0x3e075732	0.13216856
32	0x3e0f030d	0.13966008
33	0x3cccde62	0.025008384
34	0x3dee9381	0.11649228
35	0xbe0fe3ff	-0.14051817
36	0x3db4ea1d	0.08833716
37	0xbca43b43	-0.02004779
38	0xbe31ddaa	-0.17369714
39	0x3e13be81	0.1442814
40	0x3dc6d224	0.0970805
41	0xbd8a296c	-0.06746182
42	0x3e38e7ff	0.1805725
43	0x3c1421eb	0.00904129
44	0x3dee9ffe	0.1165161
45	0xbdfff1a6	-0.12497263
46	0x3de11d2b	0.109918915
47	0x3e166b57	0.14689384
48	0x3dde16b7	0.10844176
49	0x3ddb3bd7	0.10704773
50	0x3d7b3848	0.06133297
51	0x3c79b7fc	0.015241619
52	0xbe087011	-0.13324
53	0xbe25271b	-0.16128199
54	0x3dda0edb	0.10647365
55	0x3dea4cf6	0.114404604
56	0xbd10cef3	-0.035353612
57	0x3da9ec49	0.08297021
58	0xbdf444c9	-0.11927182
59	0x3d1fb73f	0.038993116
60	0x3dbc380e	0.09190379
61	0x3bd51e25	0.0065038376
62	0xbd02b591	-0.031911436
63	0xbda13b53	-0.07872643
64	0x3d553976	0.052056752
65	0xbdd234bf	-0.10263967
66	0x3d83aa39	0.06428952
67	0x3e324d6c	0.17412347
68	0xbe16a45c	-0.14711136
69	0x3d2b838d	0.041873503
70	0x3d8d522f	0.06900441
71	0xbb16427e	-0.0022927816
72	0x3c84ca5b	0.016209772
73	0x3dbf8e98	0.093533695
74	0xbdca0698	-0.09864539
75	0xbdca3f13	-0.09875312
76	0x3d675c92	0.056484766
77	0xbe1f914d	-0.15582772
78	0x3c3a56e8	0.011373259
79	0x3de3b505	0.11118511
80	0xbdc42459	-0.09577245
81	0xbcda57b5	-0.02665315
82	0xbe3390e1	-0.17535736
83	0xbe1b3262	-0.15155938
84	0xbc857301	-0.01629019
85	0x3bd2ee4a	0.0064370977
86	0x3e0aa6e2	0.13540223
87	0xbe0965da	-0.1341776
88	0x3df073f9	0.1174087
89	0xbb9e313f	-0.004827648
90	0x3a806fcc	0.0009798943
91	0x3e28d9be	0.16489312
92	0xbdde28dd	-0.10847638
93	0x3d3e5b3c	0.046473727
94	0x3d037a99	0.03209934
95	0xbe206265	-0.15662535
96	0x3d5800ae	0.052735023
97	0x3e1dfe9f	0.15429161
98	0x3e097d35	0.13426669
99	0xbe06f5ab	-0.13179652
100	0xbe1b391e	-0.15158507
101	0xbe1a1924	-0.15048653
102	0xbe2918eb	-0.16513412
103	0xbe1d88e5	-0.15384252
104	0xbe10597b	-0.14096634
105	0x3dc4483c	0.0958409
106	0x3c3a611d	0.011375693
107	0x3cced24e	0.025246765
108	0x3dd64ba5	0.10463647
109	0x3df2c733	0.118544005
110	0x3d68232c	0.056674168
111	0xbc600e09	-0.013675221
112	0xbd825d1e	-0.06365417
113	0xbde1f352	-0.11032738
114	0xbd05119c	-0.032487497
115	0xbd3a0621	-0.045416
116	0x3dc7b2c0	0.09750891
117	0x3e3f062a	0.18654695
118	0x3e267448	0.16255295
119	0x3c9cb25c	0.019128017
120	0xbcf9b2a0	-0.030480683
121	0x3dc92744	0.098219424
122	0xbde12b59	-0.10994596
123	0x3e09967a	0.13436309
124	0x3c8ae702	0.016955856
125	0xbb916da5	-0.0044381195
126	0x3cdcbce4	0.026945539
127	0xbc12ee12	-0.008967893
128	0xbd93fb41	-0.07225657
129	0xbcb3b0ef	-0.021934954
130	0xbd0a8950	-0.033822358
131	0xbe3558a8	-0.17709601
132	0xbdaf6bbd	-0.08565471
133	0x3d03d0e7	0.032181647
134	0xbe3c0ff0	-0.18365455
135	0x3e3960df	0.1810336
136	0xbdc07a9a	-0.093983844
137	0x3e091aaa	0.13389078
138	0x3e38f0e2	0.1806064
139	0x3d7091ab	0.05873267
140	0xbe17a496	-0.14808878
141	0x3da07435	0.07834665
142	0xbbc15bd3	-0.005900839
143	0x3df48c8b	0.11940869
144	0xbe05e3b7	-0.13075148
145	0x3e36125d	0.17780443
146	0x3e1cbc7a	0.15306273
147	0xbdbffcca	-0.093743876
148	0xbd00ebcd	-0.031474877
149	0x3cb09464	0.021555133
150	0x3c96dfac	0.018417202
151	0x3cfd523c	0.030923001
152	0x3cf21227	0.029549671
153	0x3d9adf7d	0.07562158
154	0x3e0832c7	0.1330062
155	0x3ca4d148	0.020119324
156	0x3e1a74d3	0.15083627
157	0xbd7034cf	-0.058644112
158	0xbe21e031	-0.15808178
159	0x3d9f0355	0.077643074
160	0xbdd947e3	-0.106094144
161	0x3db74448	0.089485705
162	0xbc4e235f	-0.012581675
163	0xb9136664	-0.00014057156
164	0x3df68845	0.1203771
165	0x3b4ac3e3	0.0030939511
166	0x3dd8af80	0.10580349
167	0x3e234646	0.15944776
168	0x3e070657	0.13186012
169	0xbe243704	-0.16036612
170	0x3dafbb91	0.08580697
171	0xbdd0858b	-0.10181721
172	0xbb7daac4	-0.003870652
173	0xbdcda106	-0.100404784
174	0x3d8735de	0.06602071
175	0xbd65b1af	-0.056077655
176	0x3e0bedb4	0.13664895
177	0x3cd908ce	0.026493456
178	0x3e376a86	0.17911729
179	0x3dade6ef	0.08491313
180	0xbd4f3dc0	-0.050596
181	0x3dad3066	0.08456497
182	0x3db9bb33	0.090689085
183	0x3c99dcb5	0.018782
184	0x3db2d2a6	0.08731584
185	0xbcb03fef	-0.02151486
186	0x3dae1aea	0.08501227
187	0x3e26dc98	0.16295087
188	0x3e22fac4	0.15915972
189	0xbd45cb16	-0.04828938
190	0xbddfcc4e	-0.1092764
191	0x3ccfb873	0.025356507
192	0xbdb1b719	-0.08677501
193	0x3d639859	0.055565212
194	0xbd265c56	-0.040615402
195	0x3d5d2699	0.053991888
196	0xbe045289	-0.1292211
197	0xbe38f604	-0.18062598
198	0x3e0ab463	0.13545375
199	0xbc8f6817	-0.017505689
200	0x3def0e19	0.11672611
201	0xbd1be1d3	-0.03805716
202	0xbdbf2e16	-0.09334962
203	0x3de44433	0.111458205
204	0xbdb05692	-0.08610262
205	0x3af5f04b	0.001876363
206	0x3e1401ee	0.14453861
207	0xbdd8931b	-0.10574933
208	0x3e109c86	0.14122209
209	0x3d615d94	0.055020884
210	0xbe24bcbe	-0.16087624
211	0xbd783d8d	-0.060605574
212	0x3e270c8a	0.16313377
213	0xbdc4b2d4	-0.09604421
214	0x3e09affb	0.13446037
215	0x3d80cf6e	0.06289564
216	0x3bcf7bcf	0.006331898
217	0x3e2b6290	0.16736817
218	0x3e0fa5b2	0.14028051
219	0xbe0eb94b	-0.13937871
220	0x3d6a18d0	0.05715257
221	0x3de4c0ed	0.1116961
222	0x3deea477	0.11652463
223	0x3dc1ce17	0.09463137
224	0xbd45bf8d	-0.04827838
225	0x3d645630	0.055746257
226	0xbe0c581b	-0.13705485
227	0xbe25bd60	-0.16185522
228	0x3d83f3d4	0.06442991
229	0x3e29ae1c	0.16570324
230	0x3dc89f6d	0.09796033
231	0x3e053b71	0.13010956
232	0x3e233fb8	0.15942276
233	0xbdd4b300	-0.10385704
234	0x3d360fae	0.044448547
235	0x3c6c956b	0.014439921
236	0xbd3fd502	-0.046834
237	0xbdfa38dd	-0.12217877
238	0xbe12e535	-0.14345248
239	0xbe0ceb2c	-0.13761586
240	0xbd36de03	-0.04464532
241	0xbe1bb9f6	-0.15207657
242	0xbdfcb78c	-0.12339696
243	0x3d37cf30	0.044875324
244	0x3dc1104a	0.09426935
245	0x3d5ca26f	0.053865846
246	0x3e298585	0.1655484
247	0xbe279b44	-0.16367823
248	0x3cbcfb00	0.023068905
249	0x3dbbc7e0	0.091689825
250	0xbcd3623c	-0.025803678
251	0xbc21158a	-0.0098317955
252	0xbd3af7c5	-0.045646448
253	0x3d740097	0.059570875
254	0xbda7fc94	-0.08202472
255	0x3cbab620	0.022791922

mean_mlp.net.0.bias f4 [8]
0	0xbd9dc156	-0.077028915
1	0x3bbd9d39	0.0057865647
2	0x3da7c3e8	0.08191663
3	0x3dc7a40b	0.097480856
4	0x3e228557	0.15871178
5	0xbe088bc9	-0.13334574
6	0x3d025001	0.03181458
7	0x3cae5c70	0.021284312

mean_mlp.net.2.weight f4 [2, 8]
0	0xbe73bd49	-0.23802675
1	0x3d1c5901	0.03817082
2	0xbe12bc8f	-0.14329742
3	0x3d5b3d57	0.053525295
4	0x3e6f91b1	0.2339542
5	0x3e5f0d27	0.21782361
6	0x3dd70919	0.10499782
7	0xbe158dc4	-0.1460486
8	0xbcecdf42	-0.028915051
9	0x3c801d32	0.015638921
10	0x39d7ccf3	0.00041160695
11	0x3d79e13c	0.061005816
12	0x3e9b699a	0.30354005
13	0xbe0bcba1	-0.13651897
14	0x3da627fd	0.08113096
15	0x3dd4bece	0.103879556

mean_mlp.net.2.bias f4 [2]
0	0xbd8b5f9b	-0.06805345
1	0xbe1b84f8	-0.15187442

logvar_mlp.net.0.weight f4 [8, 32]
0	0x3e0683da	0.13136235
1	0x3d600a64	0.05469741
2	0xbdc2a7c3	-0.09504654
3	0x3e126393	0.14295797
4	0xbe308653	-0.1723874
5	0xbde53e0b	-0.111934744
6	0xbd9591dd	-0.07303212
7	0xbcd62157	-0.026138945
8	0xbd936a38	-0.07197994
9	0xbd709600	-0.0587368
10	0xbe25e0b9	-0.16199006
11	0x3d723f54	0.059142426
12	0x3dd34df4	0.10317603
13	0x3d921713	0.07133307
14	0xbdacc7ca	-0.08436544
15	0xbe1faa02	-0.15592197
16	0x3db87fe3	0.090087675
17	0x3def687a	0.11689849
18	0xbcb3db84	-0.02195526
19	0xbe0ea065	-0.13928373
20	0xbe33d5ca	-0.17562023
21	0x3e1f022c	0.15528172
22	0x3c31f244	0.010860983
23	0x3cd97663	0.026545709
24	0xbd42564c	-0.04744558
25	0xbdfe3d04	-0.124139816
26	0xbbfbde97	-0.007686447
27	0x3df4cd0c	0.11953172
28	0xbc16a588	-0.009194739
29	0x3dc076ef	0.09397685
30	0x3cade845	0.021228919
31	0x3dfc9e15	0.12334839
32	0xbdf36465	-0.11884383
33	0xbe044db7	-0.12920271
34	0xbe0cc045	-0.1374522
35	0xbd1c743b	-0.038196784
36	0x3dda24df	0.10651564
37	0xbe1e921f	-0.15485428
38	0x3c063e37	0.008193544
39	0xbd615464	-0.05501212
40	0xbded4014	-0.115844876
41	0x3d403270	0.0469231
42	0xbd83f588	-0.06443316
43	0xbd5a6d4e	-0.053326897
44	0x3dbe5290	0.09293091
45	0x3d545595	0.05183943
46	0x3dcc2705	0.0996838
47	0x3dd6d910	0.1049062
48	0x3d4cba84	0.049982563
49	0x3e28f099	0.1649803
50	0x3e0201e7	0.12696038
51	0xbcc9c306	-0.024629127
52	0x3e298124	0.1655317
53	0xbdeb271c	-0.11482069
54	0x3dcb413a	0.0992455
55	0xbda1392e	-0.07872234
56	0x3e314ea6	0.17315158
57	0xbc15c270	-0.009140596
58	0x3dde0b5e	0.10842012
59	0xbe2bcaff	-0.16776656
60	0x3df320de	0.11871503
61	0xbd9f7e4e	-0.077877626
62	0x3cc271b4	0.023735859
63	0x3e1288b6	0.14309964
64	0xbc5f954c	-0.013646435
65	0xbcbf1627	-0.023325993
66	0x3bf51c70	0.0074801967
67	0xbde99357	-0.11405056
68	0x3b5b2880	0.0033440888
69	0xbd1f9d04	-0.0389681
70	0xbacc8adf	-0.0015605352
71	0xbe247b36	-0.16062626
72	0xbd444bdb	-0.047923904
73	0x3cddcb05	0.027074346
74	0x3d5f6cf9	0.054547284
75	0x3d172e47	0.036909368
76	0x3c95b470	0.018274516
77	0xbe07b1a8	-0.13251364
78	0x3e10526c	0.14093941
79	0x3dfb60d6	0.12274329
80	0x3de51de3	0.11187341
81	0x3d9f0ddf	0.077663176
82	0x3d8bc63e	0.06824921
83	0x3dabf2c5	0.08395914
84	0x3bb7c676	0.005608375
85	0xbc843d15	-0.016142407
86	0xbde6fd15	-0.1127874
87	0xbe0d49cf	-0.13797687
88	0x3c727fd2	0.014800983
89	0x3dbd491b	0.092424594
90	0x3e2357f0	0.15951514
91	0xbddfb468	-0.10923082
92	0xbd0f0d63	-0.034924876
93	0x3b4e9f6c	0.0031528128
94	0x3d49998b	0.049218696
95	0x3d6c3d1e	0.057675473
96	0xbe0598dc	-0.13046592
97	0x3d5290a8	0.051407486
98	0xbdd0aaa1	-0.10188795
99	0xbd1aad47	-0.037762906
100	0x3d326191	0.043550078
101	0x3dae482f	0.08509862
102	0x3d4ae635	0.04953595
103	0x3da20274	0.07910624
104	0xbd4631e0	-0.04838741
105	0x3d9ab9be	0.07554959
106	0xbda44d6a	-0.08022578
107	0xbda6c60b	-0.081432424
108	0x3d80b6bf	0.06284856
109	0x3e30b1c3	0.1725531
110	0xbdb33340	-0.087500095
111	0x3d90f0ae	0.07077156
112	0x3e0b16ad	0.13582869
113	0xbdab03ac	-0.0835031
114	0x3d595a34	0.05306454
115	0x3cfe97bf	0.031078218
116	0x3da6bb78	0.081412256
117	0xbe1fecb1	-0.15617634
118	0xbda32ec3	-0.079679035
119	0xbddfcd7c	-0.10927865
120	0xbe197ba9	-0.14988579
121	0xbd766a3e	-0.060159914
122	0x3e1ad25b	0.15119307
123	0x3d56a549	0.052403722
124	0xbd4261b0	-0.047456443
125	0x3e12a5bd	0.14321037
126	0xbda3b57e	-0.07993601
127	0x3e1b0305	0.1513787
128	0xbdfdd193	-0.12393489
129	0xbe2b8eb8	-0.16753662
130	0xbe132880	-0.14370918
131	0x3e186bb5	0.14884837
132	0xbe336fa9	-0.17523064
133	0xbe0f7eac	-0.14013165
134	0xbe18b181	-0.14911462
135	0xbdb528a8	-0.08845645
136	0xbdd8b8a0	-0.105820894
137	0x3dbad760	0.09123111
138	0xbd3c3c30	-0.045955837
139	0x3ba47d97	0.0050198543
140	0x3bb5a6fd	0.005543588
141	0x3de18814	0.11012283
142	0x3da658e4	0.08122423
143	0x3dd950c3	0.10611107
144	0xbe402090	-0.18762422
145	0xbdfeb8c4	-0.12437585
146	0x3dcbec6d	0.09957204
147	0x3d9ce894	0.07661548
148	0xbcd141f9	-0.025544154
149	0xbd8d8d0a	-0.06911667
150	0xbc9c5319	-0.019082593
151	0x3dd42bef	0.10359942
152	0x3d71a43c	0.058994517
153	0x3d3bceb9	0.045851443
154	0x3c5554c9	0.013020703
155	0x3e2b2aff	0.1671562
156	0xbd089561	-0.033345584
157	0xbdbc2b36	-0.09187929
158	0xbba49b36	-0.0050233854
159	0xbe199a00	-0.15000153
160	0xbde41ee4	-0.111387044
161	0x3d2d160f	0.042257365
162	0xbc297d27	-0.01034478
163	0xbdb14d81	-0.08657361
164	0xbe178221	-0.14795734
165	0x3dfbbd8d	0.12292013
166	0x3cf43b25	0.029813359
167	0x3e22ac30	0.15885997
168	0x3c6ec472	0.014573203
169	0xbd95c3cd	-0.07312737
170	0x3e099f61	0.13439704
171	0x3d904093	0.070435666
172	0xbd31497f	-0.043282982
173	0xbdceb8e9	-0.100938626
174	0xbe1130c3	-0.14178757
175	0x3d6e4b0e	0.058177046
176	0x3c0a155c	0.008427944
177	0xbda42526	-0.08014898
178	0x3e081285	0.13288315
179	0xbce0f7a7	-0.02746184
180	0x3d83a49d	0.06427882
181	0x3e38d093	0.18048315
182	0x3da18096	0.07885854
183	0x3b31e9f3	0.0027147501
184	0x3e10d519	0.1414379
185	0x3d1db045	0.03849818
186	0xbe26ab85	-0.16276367
187	0xbd6460a3	-0.055756222
188	0x3e21fe95	0.15819772
189	0x3c03ba07	0.008039958
190	0x3e1d352a	0.15352312
191	0xbde10159	-0.10986585
192	0xbdb6feaf	-0.08935296
193	0x3db86882	0.09004308
194	0x3d4527b5	0.04813357
195	0xbdb02986	-0.0860167
196	0xbcde58a5	-0.027141878
197	0x3d8e1550	0.06937659
198	0x3d6047dd	0.054756034
199	0x3e15ce36	0.14629444
200	0xbbf7ca09	-0.0075619263
201	0xbc5f93ef	-0.01364611
202	0xbde63e9b	-0.1124241
203	0xbe116c2b	-0.14201419
204	0x3e01b0da	0.1266512
205	0xbe3643f0	-0.17799354
206	0xba388dcb	-0.0007040172
207	0x3d149da5	0.036283154
208	0xbd002b8a	-0.031291522
209	0x3e16cb29	0.14725937
210	0x3dddaf0a	0.10824402
211	0xbe100ce8	-0.14067423
212	0x3da2505a	0.07925482
213	0xbe202f6b	-0.15643089
214	0xbe32b2dd	-0.17451043
215	0x3dc09a8c	0.094044775
216	0x3da7983e	0.08183335
217	0xbe1151dc	-0.14191383
218	0x3e284bbf	0.16435145
219	0x3d8b9af6	0.06816666
220	0x3de0a701	0.109693535
221	0xbd81208c	-0.06305036
222	0xbcec5625	-0.02884967
223	0x3d23711d	0.039902795
224	0x3daf9be6	0.08574657
225	0xbdf43d4b	-0.11925753
226	0x3c851366	0.016244601
227	0x3d4bbeb7	0.049742427
228	0x3e3219b1	0.17392613
229	0x3d462883	0.04837848
230	0x3d349436	0.044086657
231	0xbd50679e	-0.050880067
232	0xbe024641	-0.12722112
233	0x3d076f40	0.03306508
234	0xbe1846bc	-0.14870733
235	0x3df7eeb2	0.121060744
236	0x3e06efe0	0.13177443
237	0x3ced2a77	0.028950913
238	0x3e1b5f20	0.15173006
239	0xbe27f5de	-0.16402385
240	0x3cd9e1e6	0.026596975
241	0x3c19aa05	0.009378915
242	0x3c4818ae	0.012212915
243	0x3e19586a	0.14975134
244	0xbd75a50b	-0.05997185
245	0xbe39e41b	-0.18153422
246	0x3e159e00	0.14611053
247	0xbe217a16	-0.15769228
248	0x3deb130c	0.11478242
249	0x3e01d01c	0.12677044
250	0xbdaaf67a	-0.08347793
251	0x3e0c054c	0.13673896
252	0x3b30a7ad	0.0026955411
253	0xbe185ba0	-0.14878702
254	0xbe0ff711	-0.14059092
255	0x3dd66f13	0.104704045

logvar_mlp.net.0.bias f4 [8]
0	0xbd9a9e9a	-0.07549782
1	0x3baddf71	0.0053061773
2	0xbbac667c	-0.0052612405
3	0x3e3585a2	0.17726758
4	0x3d36b29f	0.04460394
5	0x3e0a6704	0.1351586
6	0x3e008df8	0.12554157
7	0xbdd55ef8	-0.104185045

logvar_mlp.net.2.weight f4 [2, 8]
0	0xbe8cf9cf	-0.2753434
1	0xbd4bc07b	-0.04974411
2	0x3e30b598	0.17256773
3	0x3e63f484	0.22261244
4	0xbe7b1427	-0.24519406
5	0xbeb42b9b	-0.35189518
6	0x3ddf62e5	0.109075345
7	0x3db3eb02	0.087850586
8	0xbc3d77e8	-0.011564232
9	0xbe458ac8	-0.19291222
10	0xbe3bf631	-0.18355633
11	0xbe9933ef	-0.29922435
12	0xbdde4d7e	-0.10854624
13	0xbe598810	-0.2124331
14	0x3d2dd55c	0.042439803
15	0x3e636589	0.22206701

logvar_mlp.net.2.bias f4 [2]
0	0x3e675d05	0.22594078
1	0x3d3874d5	0.045033295
